checkpoints/bimodal_NCL_Pretrained_Match_best.pth (torch, 372468 bytes, 47 tensors)

preactivation.0.weight f4 [32, 1]
0.84673333 -0.29590416 0.13780653 -0.17531419 -0.92243564 0.8093935 -0.41594994 0.2519467
-0.73351324 0.3264668 0.9007523 -0.30195856 -0.18001235 -0.07901883 0.60015535 0.637238
0.38852775 0.2084657 0.669453 0.98407316 0.35400438 -0.833122 0.13374722 -0.43524778
0.4667077 0.54573405 -0.30659473 0.8485005 0.9922341 -0.6716876 -0.12644172 -0.52172565
00000000: 84c3 583f c080 97be 281d 0d3e 9085 33be
00000010: be24 6cbf 6a34 4f3f 64f7 d4be 28ff 803e
00000020: 86c7 3bbf a826 a73e b497 663f 509a 9abe
00000030: 2855 38be a0d4 a1bd c8a3 193f 0822 233f
00000040: 1ced c63e 0878 553e 4661 2b3f 38ec 7b3f
00000050: 1040 b53e 7c47 55bf 08f5 083e ccd8 debe
00000060: 50f4 ee3e 3ab5 0b3f fcf9 9cbe 5437 593f
00000070: 0e03 7e3f b8f3 2bbf f079 01be d08f 05bf

preactivation.0.bias f4 [32]
0.95608604 -0.16250134 -0.3237157 0.18547809 -0.3396598 0.6788415 0.33962023 -0.38083053
-0.08756912 -0.2975552 0.72641087 0.989112 -0.5881494 0.42929685 -0.9508563 0.17224228
-0.46894133 -0.48745787 -0.5074533 0.832019 0.8909991 -0.7624607 -0.6059034 0.511523
0.9124557 -0.1316638 -0.8261261 -0.026713252 0.51089895 0.36554563 -0.08305216 0.12715673
00000000: 0ec2 743f c066 26be 10be a5be f8ed 3d3e
00000010: e4e7 adbe 8ec8 2d3f b4e2 ad3e 38fc c2be
00000020: 7057 b3bd 2859 98be 10f6 393f 7236 7d3f
00000030: f690 16bf cccc db3e 526b 73bf 4860 303e
00000040: 1419 f0be 1494 f9be 76e8 01bf 32ff 543f
00000050: 8418 643f a030 43bf 7c1c 1bbf 2cf3 023f
00000060: b296 693f e0d2 06be 007d 53bf c0d5 dabc
00000070: 46ca 023f cc28 bb3e 4017 aabd 6035 023e

preactivation.1.weight f4 [32]
1.0 1.0 1.0 1.0 1.0 1.0 1.0 1.0
1.0 1.0 1.0 1.0 1.0 1.0 1.0 1.0
1.0 1.0 1.0 1.0 1.0 1.0 1.0 1.0
1.0 1.0 1.0 1.0 1.0 1.0 1.0 1.0
00000000: 0000 803f 0000 803f 0000 803f 0000 803f
00000010: 0000 803f 0000 803f 0000 803f 0000 803f
00000020: 0000 803f 0000 803f 0000 803f 0000 803f
00000030: 0000 803f 0000 803f 0000 803f 0000 803f
00000040: 0000 803f 0000 803f 0000 803f 0000 803f
00000050: 0000 803f 0000 803f 0000 803f 0000 803f
00000060: 0000 803f 0000 803f 0000 803f 0000 803f
00000070: 0000 803f 0000 803f 0000 803f 0000 803f

preactivation.1.bias f4 [32]
0.0 0.0 0.0 0.0 0.0 0.0 0.0 0.0
0.0 0.0 0.0 0.0 0.0 0.0 0.0 0.0
0.0 0.0 0.0 0.0 0.0 0.0 0.0 0.0
0.0 0.0 0.0 0.0 0.0 0.0 0.0 0.0
00000000: 0000 0000 0000 0000 0000 0000 0000 0000
00000010: 0000 0000 0000 0000 0000 0000 0000 0000
00000020: 0000 0000 0000 0000 0000 0000 0000 0000
00000030: 0000 0000 0000 0000 0000 0000 0000 0000
00000040: 0000 0000 0000 0000 0000 0000 0000 0000
00000050: 0000 0000 0000 0000 0000 0000 0000 0000
00000060: 0000 0000 0000 0000 0000 0000 0000 0000
00000070: 0000 0000 0000 0000 0000 0000 0000 0000

preactivation.1.running_mean f4 [32]
0.0 0.0 0.0 0.0 0.0 0.0 0.0 0.0
0.0 0.0 0.0 0.0 0.0 0.0 0.0 0.0
0.0 0.0 0.0 0.0 0.0 0.0 0.0 0.0
0.0 0.0 0.0 0.0 0.0 0.0 0.0 0.0
00000000: 0000 0000 0000 0000 0000 0000 0000 0000
00000010: 0000 0000 0000 0000 0000 0000 0000 0000
00000020: 0000 0000 0000 0000 0000 0000 0000 0000
00000030: 0000 0000 0000 0000 0000 0000 0000 0000
00000040: 0000 0000 0000 0000 0000 0000 0000 0000
00000050: 0000 0000 0000 0000 0000 0000 0000 0000
00000060: 0000 0000 0000 0000 0000 0000 0000 0000
00000070: 0000 0000 0000 0000 0000 0000 0000 0000

preactivation.1.running_var f4 [32]
1.0 1.0 1.0 1.0 1.0 1.0 1.0 1.0
1.0 1.0 1.0 1.0 1.0 1.0 1.0 1.0
1.0 1.0 1.0 1.0 1.0 1.0 1.0 1.0
1.0 1.0 1.0 1.0 1.0 1.0 1.0 1.0
00000000: 0000 803f 0000 803f 0000 803f 0000 803f
00000010: 0000 803f 0000 803f 0000 803f 0000 803f
00000020: 0000 803f 0000 803f 0000 803f 0000 803f
00000030: 0000 803f 0000 803f 0000 803f 0000 803f
00000040: 0000 803f 0000 803f 0000 803f 0000 803f
00000050: 0000 803f 0000 803f 0000 803f 0000 803f
00000060: 0000 803f 0000 803f 0000 803f 0000 803f
00000070: 0000 803f 0000 803f 0000 803f 0000 803f

kp_conv.weights f4 [27, 1, 32]
-0.03459003 -0.067108825 -0.0031521062 -0.12105443 0.14121671 -0.040474456 0.07195978 0.011382884
0.12059633 0.105555564 0.09795402 -0.044890124 -0.014138138 -0.13958733 0.10262215 -0.06703934
-0.08458406 0.04255082 -0.045746718 0.028533105 -0.09162344 -0.12302367 -0.08910265 -0.12207325
-0.08331902 0.036129087 -0.013000195 -0.09723461 0.041808408 0.08866675 0.01085113 -0.0059477394
-0.14031684 0.1033528 0.08925736 -0.04808965 -0.044169582 0.03608516 -0.16030626 -0.15561987
-0.17316326 -0.011177721 0.0049319584 0.055164196 -0.11556234 -0.17325154 0.124118365 0.16163549
-0.058961064 0.046748713 0.09895188 0.02947494 -0.094459526 0.10332948 0.080369934 0.054353163
0.097732455 -0.008453999 -0.16478005 0.13433087 0.06968956 -0.05697062 -0.026200397 -0.02925055
0.065523766 0.030303875 0.16315104 0.04197354 0.072166614 0.009824656 -0.013658247 0.086794145
-0.12855878 0.0038251362 0.12158586 -0.05873138 0.017841818 -0.026283195 0.05427139 0.010607
0.117483914 0.00291297 0.062301423 0.016497917 0.07808936 -0.053936277 0.12077913 -0.027606133
0.03250554 -0.10996485 0.074660115 -0.00520408 0.0027565192 -0.05648046 0.06870702 0.14926642
0.08813345 0.11689549 0.098481424 -0.033660732 -0.0558718 -0.10857735 0.06900003 -0.1103231
-0.04578973 -0.011660767 -0.06178876 -0.061064605 -0.10229955 -0.09536107 -0.06186908 -0.11028111
-0.15420876 0.02675364 -0.08789888 0.14757526 -0.08738764 0.079709195 0.07492716 0.027974052
0.052343242 0.034336463 -0.007939551 0.10246931 -0.11256521 0.17915747 0.07838194 -0.03405831
-0.11492587 0.00039428123 0.10437615 -0.06698677 0.11937742 -0.07784695 0.030168062 0.11439056
-0.008736399 -0.040260967 0.0048101554 0.097604886 0.0023700863 0.12403866 -0.012863568 -0.12957987
-0.12567224 0.101937525 -0.013763626 -0.06382881 0.10207688 -0.022105495 0.0034843837 0.15476698
-0.116557464 0.10238125 0.005912362 0.021309305 -0.00032921156 0.111556545 -0.1732122 -0.04580898
-0.032525927 -0.09688714 -0.028705945 0.030194014 0.013290514 -0.1350842 -0.04200364 -0.07661811
0.09625736 -0.09277324 0.023979267 -0.11709344 -0.13011783 0.07819898 0.06444519 0.118952975
0.10034719 -0.033183347 -0.045464326 -0.072717875 0.027347172 0.016233241 -0.040567417 -0.14697547
0.09835877 -0.1458706 -0.04503726 -0.09862458 -0.061821353 0.12893376 -0.06940042 0.05611685
0.017975451 -0.06384311 0.09585466 0.081230134 0.0058232457 0.030457772 0.049018115 0.060321182
-0.0089882715 -0.03496219 0.04629985 0.102589756 -0.026452862 0.06621543 -0.02666389 -0.1066817
-0.01782169 0.008962889 0.10925757 0.023727551 0.007479421 0.020172216 0.14251152 0.06548057
0.108219266 -0.005570013 0.044406876 -0.024488825 -0.04024916 -0.03369497 -0.10373179 -0.022824764
0.08493258 -0.13060246 0.025951372 0.02526875 0.06842482 0.15537916 0.06829007 -0.1528409
0.002762452 0.032669697 0.15726359 -0.08619737 -0.11047864 -0.10556319 0.11110698 -0.14085151
-0.019824594 -0.06566702 0.023389265 0.096489154 -0.07567377 0.039417434 -0.04284244 0.023128463
-0.09009407 -0.11313292 0.10720216 0.1139718 0.056388035 0.13407226 -0.016810743 0.044499848
00000000: 46ae 0dbd 5a70 89bd 9193 4ebb 63eb f7bd
00000010: 1d9b 103e 8bc8 25bd a65f 933d 477f 3a3c
00000020: 35fb f63d 842d d83d 1e9c c83d b5de 37bd
00000030: a6a3 67bc fbef 0ebe 902b d23d ec4b 89bd
00000040: 683a adbd c549 2e3d e960 3bbd 42be e93c
00000050: 12a5 bbbd d5f3 fbbd 737b b6bd 8a01 fabd
00000060: 2aa3 aabd 18fc 133d c5fe 54bc f022 c7bd
00000070: 4b3f 2b3d ea96 b53d f0c8 313c 41e5 c2bb
00000080: 38af 0fbe a2aa d33d 90cc b63d a7f9 44bd
00000090: 2aeb 34bd 08ce 133d 5327 24be d15a 1fbe
000000a0: b651 31be c322 37bc 449c a13b daf3 613d
000000b0: f3ab ecbd da68 31be c531 fe3d c683 253e
000000c0: 2881 71bd 947b 3f3d 49a7 ca3d 6e75 f13c
000000d0: ff73 c1bd 689e d33d fe98 a43d 6ca1 5e3d
000000e0: f427 c83d a482 0abc 1abc 28be 088e 093e
000000f0: 66b9 8e3d 065a 69bd 37a2 d6bc d99e efbc
00000100: 5331 863d d53f f83c 1111 273e 72ec 2b3d
00000110: 17cc 933d 98f7 203c d7c6 5fbc 21c1 b13d
00000120: eaa4 03be 23af 7a3b 0202 f93d 5190 70bd
00000130: 0129 923c db4f d7bc ad4b 5e3d fcc8 2d3c
00000140: 689b f03d 87e7 3e3b c72f 7f3d a426 873c
00000150: 50ed 9f3d 49ec 5cbd 0c5b f73d 4226 e2bc
00000160: 8724 053d 4035 e1bd 67e7 983d fd86 aabb
00000170: b8a6 343b 0e58 67bd 44b6 8c3d 4cd9 183e
00000180: 4f7f b43d e766 ef3d a1b0 c93d d6df 09bd
00000190: d4d9 64bd cd5d debd e34f 8d3d 14f1 e1bd
000001a0: 038e 3bbd cd0c 3fbc 3616 7dbd e11e 7abd
000001b0: 6d82 d1bd aa4c c3bd 6f6a 7dbd 10db e1bd
000001c0: e7e8 1dbe 732a db3c 5404 b4bd f81d 173e
000001d0: 4af8 b2bd 933e a33d 6973 993d d729 e53c
000001e0: de65 563d 64a4 0c3d e414 02bc 6edb d13d
000001f0: 9788 e6bd 0e75 373e b686 a03d ba80 0bbd
00000200: 415e ebbd 88b7 ce39 2ac3 d53d 5c30 89bd
00000210: 267c f43d 396e 9fbd 0323 f73c 9945 ea3d
00000220: 1d23 0fbc afe8 24bd 829e 9d3b 12e5 c73d
00000230: 7353 1b3b fb07 fe3d b7c1 52bc 96b0 04be
00000240: 39b0 00be 9fc4 d03d d580 61bc aeb8 82bd
00000250: af0d d13d 9516 b5bc 425a 643b 3c7b 1e3e
00000260: aeb5 eebd 43ad d13d 7dbc c13b da90 ae3c
00000270: 079a acb9 c277 e43d 8a5e 31be 32a2 3bbd
00000280: e839 05bd c46c c6bd bb28 ebbc 7059 f73c
00000290: 75c0 593c 8353 0abe 020c 2cbd f5e9 9cbd
000002a0: 9422 c53d e5ff bdbd 2b70 c43c afce efbd
000002b0: 9c3d 05be c926 a03d d7fb 833d 9e9d f33d
000002c0: d482 cd3d 43eb 07bd cd38 3abd 1ced 94bd
000002d0: 2d07 e03c 93fb 843c 052a 26bd bd80 16be
000002e0: 5370 c93d 1a5f 15be fd78 38bd affb c9bd
000002f0: 6338 7dbd 3607 043e cf21 8ebd c8da 653d
00000300: 4141 933c 2dc0 82bd 734f c43d fc5b a63d
00000310: edd0 be3b 9482 f93c 38c7 483d 5813 773d
00000320: 8b43 13bc 8334 0fbd e9a4 3d3d 941a d23d
00000330: acb3 d8bc f59b 873d 3b6e dabc ef7b dabd
00000340: cbfe 91bc 15d9 123c 6fc2 df3d 4860 c23c
00000350: ee15 f53b 3440 a53c 8aee 113e ad1a 863d
00000360: 10a2 dd3d a884 b6bb fce3 353d ca9c c8bc
00000370: 4edc 24bd bd03 0abd 5571 d4bd 00fb babc
00000380: 22f1 ad3d a7bc 05be f997 d43c 6900 cf3c
00000390: 5022 8c3d b71b 1f3e aadb 8b3d 5382 1cbe
000003a0: 410a 353b a9d0 053d b509 213e 3f88 b0bd
000003b0: a042 e2bd 8431 d8bd 0e8c e33d 613b 10be
000003c0: 3067 a2bc 6e7c 86bd d89a bf3c 1b9c c53d
000003d0: d9fa 9abd 2d74 213d 8e7b 2fbd e777 bd3c
000003e0: 3d83 b8bd 3bb2 e7bd ce8c db3d 0c6a e93d
000003f0: 24f7 663d 3d4a 093e afb6 89bc 7945 363d

kp_conv.offset_bias f4 [81]
-0.011558915 -3.1170202e-05 -0.014147849 -0.009042866 -0.015652472 -0.019337414 -0.015640005 -0.02347134
0.023536554 -0.004495986 -0.010751398 -0.016098911 0.027885996 0.06724033 -0.05252139 0.0024962286
-0.035094086 0.0067202835 -0.013851197 0.026938844 0.00557649 0.0036320325 -0.007999174 0.013698321
0.0005646203 0.0023484353 -0.00047008527 0.0058678747 -0.02093423 -0.001575866 0.014789961 0.02182819
-0.007957168 0.00836858 0.00989372 0.025303697 -0.029649746 -0.00856831 -0.0073582246 0.05964759
-0.040888663 -0.00464594 0.0028892 -0.015946738 -0.029328555 0.045635153 -0.03201527 -0.020473203
-0.013424798 0.011377254 -0.005049207 0.010398016 -0.018314557 0.027209619 0.004603566 0.026748983
-0.015459848 -0.006723994 -0.021397926 0.021118002 0.04190048 -0.036153693 0.025594382 -0.018545203
0.033474687 -0.035664324 -0.0067582163 -0.024854599 -0.0007953822 0.005307378 -0.019425392 -0.013535869
0.030913344 0.0017829022 0.008944069 0.005393838 -0.018823765 -0.004000491 0.014977262 -0.0119039295
0.010199677
00000000: 9a61 3dbc c0bc 02b8 61cc 67bc 8728 14bc
00000010: 9d39 80bc 7f69 9ebc 781f 80bc f846 c0bc
00000020: bbcf c03c 1053 93bb a226 30bc dde1 83bc
00000030: 2c71 e43c 4cb5 893d ab20 57bd c497 233b
00000040: d1be 0fbd d335 dc3b 22f0 62bc daae dc3c
00000050: fdba b63b 6507 6e3b f80e 03bc ec6e 603c
00000060: 0703 143a 35e8 193b c775 f6b9 4d47 c03b
00000070: 437e abbc 4a8d ceba 9851 723c 08d1 b23c
00000080: c85e 02bc 5e1c 093c 4519 223c b349 cf3c
00000090: 06e4 f2bc 1962 0cbc 431d f1bb 0851 743d
000000a0: df7a 27bd f83c 98bb bc58 3d3b bca2 82bc
000000b0: 7042 f0bc edeb 3a3d 7222 03bd 6bb7 a7bc
000000c0: aff3 5bbc a967 3a3c d173 a5bb 715c 2a3c
000000d0: 6908 96bc b5e6 de3c 83d9 963b af20 db3c
000000e0: 4d4b 7dbc f354 dcbb b44a afbc a9ff ac3c
000000f0: d69f 2b3d e515 14bd 4fab d13c 1cec 97bc
00000100: c11c 093d c114 12bd 0774 ddbb df9b cbbc
00000110: 3281 50ba 83e9 ad3b 0022 9fbc 8dc5 5dbc
00000120: fb3d fd3c 45b0 e93a 258a 123c cbbe b03b
00000130: 4c34 9abc 8d16 83bb 3163 753c b308 43bc
00000140: 8c1c 273c

kp_conv.offset_conv.weights f4 [27, 1, 81]
0.039450284 0.040736992 -0.04027397 -0.09015451 -0.070659466 -0.010046699 -0.031950597 0.080457374
0.078018986 0.03404977 -0.08563921 0.016654281 -0.13083293 -0.04779397 0.00707403 0.012841376
-0.027693193 0.076131076 -0.07898796 0.09919919 0.016358174 -0.019679941 -0.09430337 -0.083487466
0.022593241 -0.00015087433 0.015264836 0.019567188 -0.09461629 0.042624522 0.0005394508 -0.062986135
-0.004703538 -0.07290896 0.0074097957 0.03287152 0.017668482 0.08234881 0.0919807 -0.090332955
0.0039432966 0.009691326 -0.0076234164 0.021348331 0.05107333 -0.065047316 0.054124102 0.014552045
-0.07076649 -0.012951634 0.044349235 0.020406522 -0.044664726 -0.086921796 -0.02185301 -0.04772568
0.018057628 -0.057390288 -0.0583087 0.0025936866 -0.062237147 -0.020840725 0.09420611 0.09120809
-0.10453014 -0.011304503 -0.07322779 0.0155335115 0.07336494 0.047587667 0.081355125 -0.009966013
0.064420715 0.08538321 -0.0492111 -0.01587593 0.10996054 0.058646064 -0.06424524 -0.012646437
0.034152213 -0.040853478 0.013175727 -0.04998556 0.031497214 -0.013304156 0.033045866 0.019105371
-0.061703052 -0.064132005 -0.009446055 0.008738798 -0.07080962 0.028540649 0.009319469 -0.022459142
0.08036362 -0.018395612 -0.04972934 -0.008922177 -0.048823487 -0.082972534 0.03917435 0.055211153
0.051161587 -0.011971051 0.011952055 -0.020156233 -0.04176085 0.005671344 0.009363625 0.053901255
0.020852754 -0.07301209 0.06128037 -0.053198963 -0.10392766 -0.04635992 0.013991231 -0.062385134
0.031285807 -0.008723515 0.013022072 -0.057008214 -0.111584574 0.03596411 0.03548566 0.073136166
0.010595464 -0.015611808 -0.0010620599 -0.059441257 0.086853124 0.07843811 0.07995428 -0.07178793
-0.052673098 -0.03924529 0.067372136 -0.018661363 0.070848815 -0.091026075 0.033626687 -0.060116358
0.023248887 0.050352935 -0.018156411 0.044862565 0.08249843 -0.040459916 0.043199886 -0.01135795
0.055930898 -0.0781486 0.061195213 -0.023096958 0.018892515 -0.039878506 -0.06875576 -0.03265775
-0.035877924 -0.032272827 0.08488417 -0.015916474 -0.06505931 0.08624642 0.08964108 0.046035502
-0.07609381 0.014982738 -0.045902405 -0.0724103 0.01791237 -0.07056438 -0.028160917 0.056521297
0.017005509 -0.052864976 0.08522484 0.03571714 -0.0014857351 -0.031885482 -0.018724203 -0.07375773
-0.12510785 -0.0946238 0.013825619 0.0031262743 0.01935165 -0.10836432 0.07690041 -0.0090282755
-0.036720224 0.026774544 -0.037545323 -0.027872799 -0.048962962 0.0686416 0.07627791 -0.05299522
0.09108059 -0.01825334 0.09714269 0.10746742 0.016969906 0.049264602 0.02376556 0.03197994
0.04593951 0.07640386 -0.032891415 0.009971151 0.018307073 -0.022531323 0.021997657 -0.022224667
0.10205145 0.038650744 0.011161722 -0.038935307 -0.039105985 -0.025165733 -0.04037007 0.008057914
0.033811998 -0.031520322 -0.05640865 -0.014357679 0.05946735 0.080607384 0.027621932 -0.051196568
0.04626369 0.044329632 -0.018479498 0.0010933555 0.0058120764 0.011757103 -0.056054454 -0.027120134
-0.09441084 -0.041450802 -0.033252355 -0.074450135 -0.029364413 -0.01754588 0.06627343 -0.06564938
0.087231055 0.010465109 0.062878564 0.008932565 0.04356765 0.050359644 -0.034565277 0.064069085
00000000: 9f96 213d d5db 263d 52f6 24bd eea2 b8bd
00000010: e9b5 90bd e99a 24bc a1de 02bd d6c6 a43d
00000020: 6bc8 9f3d c677 0b3d 9c63 afbd 8f6e 883c
00000030: 11f9 05be 9cc3 43bd 44cd e73b a264 523c
00000040: d6dc e2bc 9cea 9b3d 71c4 a1bd f228 cb3d
00000050: 9401 863c d437 a1bc 2022 c1bd 7afb aabd
00000060: 7615 b93c 0534 1eb9 5d19 7a3c 5e4b a03c
00000070: 2fc6 c1bd 0d97 2e3d ee69 0d3a e0fe 80bd
00000080: 2320 9abb 4b51 95bd dfcd f23b 49a4 063d
00000090: 7ebd 903c 7ea6 a83d 6160 bc3d 7c00 b9bd
000000a0: c536 813b 5ec8 1e3c dacd f9bb b2e2 ae3c
000000b0: 4532 513d 8737 85bd 3cb1 5d3d b36b 6e3c
000000c0: 06ee 90bd 1733 54bc 8ba7 353d 942b a73c
000000d0: 5cf2 36bd 0e04 b2bd 1505 b3bc 017c 43bd
000000e0: 97ed 933c 1412 6bbd 1ad5 6ebd d7fa 293b
000000f0: 61ec 7ebd 2bba aabc 22ef c03d 4fcb ba3d
00000100: e613 d6bd 8636 39bc 74f8 95bd 4580 7e3c
00000110: 5c40 963d 49eb 423d 849d a63d 7d48 23bc
00000120: 02ef 833d 64dd ae3d 9491 49bd 3d0e 82bc
00000130: fe32 e13d db36 703d 0293 83bd 0033 4fbc
00000140: 31e3 0b3d fa55 27bd 01df 573c a9bd 4cbd
00000150: 3903 013d adf9 59bc 1a5b 073d de82 9c3c
00000160: 57bc 7cbd a457 83bd a0c3 1abc 2d2d 0f3c
00000170: a204 91bd 14ce e93c b0b0 183c 3cfc b7bc
00000180: ae95 a43d 65b2 96bc feb0 4bbd 532e 12bc
00000190: 23fb 47bd 81ed a9bd 4975 203d 1725 623d
000001a0: d08e 513d 3a22 44bc 8dd2 433c af1e a5bc
000001b0: 6d0d 2bbd afd6 b93b e469 193c 90c7 5c3d
000001c0: 65d3 aa3c 5d87 95bd 2001 7b3d 28e7 59bd
000001d0: 06d8 d4bd e6e3 3dbd 7a3b 653c 8e87 7fbd
000001e0: 8c25 003d 13ed 0ebc 875a 553c 7281 69bd
000001f0: 7486 e4bd 1a4f 133d 6959 113d 6ac8 953d
00000200: 9998 2d3c abc8 7fbc d134 8bba ad78 73bd
00000210: 0de0 b13d 29a4 a03d 12bf a33d 8d05 93bd
00000220: bfbf 57bd abbf 20bd 67fa 893d b7df 98bc
00000230: 2f19 913d e16b babd 23bc 093d 923c 76bd
00000240: 7374 be3c e13e 4e3d c1bc 94bc cfc1 373d
00000250: f0f4 a83d 4cb9 25bd 5df2 303d b216 3abc
00000260: cc17 653d 600c a0bd d5a7 7a3d d535 bdbc
00000270: 7ac4 9a3c a557 23bd d2cf 8cbd 22c4 05bd
00000280: bbf4 12bd 8330 04bd c0d7 ad3d 4463 82bc
00000290: d13d 85bd f7a1 b03d be95 b73d b98f 3c3d
000002a0: 12d7 9bbd 287a 753c 2904 3cbd da4b 94bd
000002b0: f6bc 923c 0f84 90bd b9b1 e6bc e082 673d
000002c0: 234f 8b3c f288 58bd 5c8a ae3d 234c 123d
000002d0: ffbc c2ba 5a9a 02bd 8063 99bc 4b0e 97bd
000002e0: 461c 00be 1fca c1bd d984 623c 2ee2 4c3b
000002f0: 5a87 9e3c 1dee ddbd f67d 9d3d 55eb 13bc
00000300: f267 16bd 4a56 db3c 20c9 19bd 7f55 e4bc
00000310: 638d 48bd f893 8c3d 9837 9c3d 8411 59bd
00000320: 7688 ba3d 0788 95bc bff2 c63d e117 dc3d
00000330: 7904 8b3c aec9 493d feaf c23c 66fd 023d
00000340: 112b 3c3d a079 9c3d 26b9 06bd 0a5e 233c
00000350: b7f8 953c 9c93 b8bc 6e34 b43c 8110 b6bc
00000360: 5a00 d13d 3e50 1e3d a8df 363c a17a 1fbd
00000370: 992d 20bd 5e28 cebc 165b 25bd 5705 043c
00000380: 737e 0a3d 741b 01bd c20c 67bd 783c 6bbc
00000390: 0994 733d 7c15 a53d 6447 e23c 7eb3 51bd
000003a0: ff7e 3d3d fd92 353d 5162 97bc ec4e 8f3a
000003b0: 3b73 be3b dda0 403c 5b99 65bd 0b2b debc
000003c0: 785a c1bd 51c8 29bd 9f33 08bd 5079 98bd
000003d0: a38d f0bc 61bc 8fbc 5dba 873d 2f73 86bd
000003e0: 32a6 b23d d975 2b3c 7ac6 803d e559 123c
000003f0: fe73 323d ea45 4e3d 5294 0dbd a736 833d

position_embedding.0.weight f4 [32, 3]
0.008756433 0.014387587 -1.098775 0.023783922 0.009114441 0.8855119 -0.22971699 -0.13837202
0.024546076 0.003397913 0.27013022 -0.2642117 -0.17402475 0.10465615 0.017629027 0.03850606
-0.0113464855 -0.8612787 0.03644554 -0.02080185 0.61589974 -0.018513659 -0.16652453 0.6688192
-0.18949272 0.26715508 0.48448476 -0.02718815 0.31182453 -0.07298339 -0.12850603 -0.00791926
0.30344477 -0.14609572 0.04689891 -0.15650529 -0.06746749 -0.01695101 -0.5178315 0.15870513
0.017278994 -0.2975139 -0.17993854 -0.21663773 -0.0022291415 0.35682538 0.23067772 -0.09487085
-0.17200302 -0.08013412 0.039572816 -0.07171082 -0.23345298 -0.5195387 -0.08553477 0.049565468
-0.41990033 0.022587417 -0.075783096 -0.68138283 0.1905097 0.42316362 -0.219559 0.12859432
-0.15784359 -0.24623422 -0.06072193 -0.0803244 -0.48790774 -0.10431937 0.27996933 0.021906912
-0.0127433855 -0.017403571 -0.66149396 0.0058779535 -0.13047655 -0.8884388 -0.046700954 -0.033257592
0.8166886 0.05465553 -0.09964148 0.45275363 0.11547854 -0.13503091 -0.47698146 -0.0057187816
0.38795596 -0.13118102 -0.010984761 0.16041192 0.57479966 -0.015306661 0.04258762 -0.8721217
00000000: 2477 0f3c eab9 6b3c a9a4 8cbf 80d6 c23c
00000010: bd54 153c e8b0 623f ee3a 6bbe 65b1 0dbe
00000020: da14 c93c 85af 5e3b 824e 8a3e c246 87be
00000030: 8b33 32be f755 d63d c06a 903c 88b8 1d3d
00000040: 9ce6 39bc c37c 5cbf eb47 153d a468 aabc
00000050: 9bab 1d3f f5a9 97bc 6885 2abe bc37 2b3f
00000060: 610a 42be 8dc8 883e 630e f83e afb9 debc
00000070: 77a7 9f3e 5178 95bd 1697 03be c9bf 01bc
00000080: 1d5d 9b3e 1e9a 15be 1219 403d ec42 20be
00000090: 652c 8abd d8dc 8abc 9b90 04bf 9983 223e
000000a0: ad8c 8d3c be53 98be cf41 38be 48d6 5dbe
000000b0: ca16 12bb d1b1 b63e c836 6c3e a64b c2bd
000000c0: 8f21 30be 5c1d a4bd 1b17 223d 1fdd 92bd
000000d0: 4c0e 6fbe 7d00 05bf da2c afbd 2905 4b3d
000000e0: 2dfd d6be 3f09 b93c 2b34 9bbd 1b6f 2ebf
000000f0: fa14 433e e7a8 d83e 13d4 60be 3bae 033e
00000100: c0a1 21be d324 7cbe 8fb7 78bd 1e81 a4bd
00000110: 0bcf f9be 65a5 d5bd 2458 8f3e 2076 b33c
00000120: a2c9 50bc ef91 8ebc ab57 29bf d99b c03b
00000130: a59b 05be ba70 63bf 8049 3fbd 1d39 08bd
00000140: 8112 513f 7ade 5f3d d510 ccbd 53cf e73e
00000150: 0380 ec3d 8b45 0abe ea36 f4be 9e64 bbbb
00000160: 2aa2 c63e 5154 06be 6df9 33bc 0643 243e
00000170: 1226 133f cac8 7abc 5b70 2e3d 5e43 5fbf

position_embedding.0.bias f4 [32]
1.0572264e-05 -1.0963628e-05 9.644771e-07 -2.7091987e-06 -7.660051e-07 -4.873089e-06 -9.522236e-06 3.8517915e-06
-1.0649354e-06 -4.322389e-06 1.3987403e-06 1.7795883e-06 -9.59042e-06 6.009144e-07 1.8561982e-06 5.365258e-08
-6.7743247e-07 8.586563e-07 1.5435174e-06 -2.7351868e-07 -1.9745746e-06 -1.3155345e-06 -5.693478e-07 7.451663e-09
2.4121497e-05 1.3153588e-06 5.942918e-06 -5.66323e-06 -1.6344344e-06 4.122525e-06 -1.311315e-06 -1.8206373e-06
00000000: 875f 3137 6cf0 37b7 2e73 8135 aecf 35b6
00000010: 789f 4db5 8483 a3b6 b1c1 1fb7 a33e 8136
00000020: e7ee 8eb5 0a09 91b6 5abc bb35 30da ee35
00000030: 8ae6 20b7 864e 2135 7c22 f935 a36f 6633
00000040: ced8 35b5 697e 6635 db2a cf35 1fd8 92b4
00000050: ef82 04b6 6c91 b0b5 48d5 18b5 c304 0032
00000060: 8558 ca37 628b b035 4769 c736 c606 beb6
00000070: bd5e dbb5 3854 8a36 7100 b0b5 9f5c f4b5

position_embedding.1.weight f4 [32]
0.96838456 0.54408896 0.34700564 0.68802834 0.32608375 0.8431824 0.3933264 0.64245826
0.5146544 0.5540621 0.43591583 0.27471018 0.58354247 0.6586651 0.4325023 0.49909037
0.5180823 0.5364348 0.53855467 0.6650522 0.5686598 0.36794537 0.47275627 0.49483368
0.6222384 0.7245476 0.5912987 0.54443485 0.5788574 0.6927079 0.6574784 0.88579756
00000000: 0de8 773f 6a49 0b3f b9aa b13e a022 303f
00000010: 73f4 a63e cdda 573f 1462 c93e 2578 243f
00000020: 64c0 033f 04d7 0d3f 5c30 df3e d0a6 8c3e
00000030: 0a63 153f 479e 283f f170 dd3e c688 ff3e
00000040: 0ba1 043f cb53 093f b8de 093f dc40 2a3f
00000050: b093 113f 5663 bc3e 1c0d f23e d75a fd3e
00000060: 044b 1f3f f47b 393f 5a5f 173f 1560 0b3f
00000070: 0030 143f 4e55 313f 8150 283f a1c3 623f

position_embedding.1.bias f4 [32]
-0.57596016 0.24832422 0.009333004 -0.39967108 -0.08702759 -0.44305244 0.2195387 0.13218926
-0.03980069 -0.14392656 0.0061301254 0.020540388 -0.16016237 -0.23400563 -0.013741128 0.07143988
-0.24400379 0.08513599 -0.32659462 -0.48382512 -0.0088625075 0.060153354 -0.03958818 -0.31988597
-0.6005755 0.044668596 0.34224522 -0.15608618 -0.17123584 0.19570602 0.09338333 -0.61573297
00000000: 2072 13bf b448 7e3e 75e9 183c b0a1 ccbe
00000010: 853b b2bd c5d7 e2be c1ce 603e 9f5c 073e
00000020: 0c06 23bd 7c61 13be 38df c83b 5144 a83c
00000030: 9b01 24be 2c9f 6fbe 7822 61bc 124f 923d
00000040: 21dc 79be c75b ae3d 6937 a7be edb7 f7be
00000050: 0d34 11bc 5d63 763d 3727 22bd 18c8 a3be
00000060: 51bf 19bf 6bf6 363d c43a af3e 0ed5 1fbe
00000070: 7358 2fbe 2967 483e c23f bf3d ada0 1dbf

position_embedding.1.running_mean f4 [32]
0.8261514 -0.65283334 -0.0934931 0.55772644 0.21252196 0.6015982 -0.500298 -0.7092495
0.09459577 0.48768178 -0.17240655 0.24959633 0.39206353 0.1658708 -0.20331778 0.2080906
-0.0539361 0.103292964 0.41823304 0.38968974 0.6403665 -0.093533866 0.28121424 0.4119989
0.4709648 0.47690883 -0.6249675 -0.4950649 0.11398666 0.62289596 -0.20258856 0.7085385
00000000: a87e 533f 1620 27bf 4f79 bfbd 29c7 0e3f
00000010: 5b9f 593e 5702 1a3f 8813 00bf 6091 35bf
00000020: 6dbb c13d 6db1 f93e 588b 30be 2e96 7f3e
00000030: 8dbc c83e 09da 293e 8932 50be b415 553e
00000040: 1aec 5cbd 438b d33d a422 d63e 6a85 c73e
00000050: 0fef 233f af8e bfbd 50fb 8f3e 85f1 d23e
00000060: 4c22 f13e 652d f43e dffd 1fbf 2679 fdbe
00000070: d771 e93d 1c76 1f3f 6073 4fbe c762 353f

position_embedding.1.running_var f4 [32]
1.3063545 1.2034453 28.416916 12.073529 16.253859 1.3508285 1.2189758 5.1947103
28.536446 16.29526 7.8303123 10.71645 2.6688566 11.988618 23.253546 69.6807
15.205918 11.798178 4.2664433 1.5668249 46.75081 11.857962 3.1957319 17.987925
0.62107605 3.537272 1.7688459 3.407013 9.2861595 24.71651 4.52823 1.2945038
00000000: a036 a73f 7f0a 9a3f d855 e341 2d2d 4141
00000010: e707 8241 f3e7 ac3f 6607 9c3f 113b a640
00000020: a44a e441 b15c 8241 eb91 fa40 9476 2b41
00000030: 8cce 2a40 61d1 3f41 4307 ba41 855c 8b42
00000040: 714b 7341 56c5 3c41 b486 8840 b88d c83f
00000050: d400 3b42 36ba 3d41 df86 4c40 45e7 8f41
00000060: d7fe 1e3f aa62 6240 8b69 e23f 800c 5a40
00000070: 1c94 1441 6abb c541 43e7 9040 4db2 a53f

position_embedding.3.weight f4 [64, 32]
0.028346118 0.02035142 0.02169646 0.22488509 -0.008219375 0.26115537 -0.09546985 -0.091605164
0.08996133 -0.02001078 0.13312922 -0.1854852 -0.23252344 0.12260536 -0.08203646 -0.089839116
0.12959094 0.15731192 0.054084245 0.3532032 -0.20495573 0.0052644326 0.036387347 -0.054476853
-0.052656595 0.08761094 -0.13707437 -0.16267766 0.15872066 -0.2656385 0.23998107 -0.092798024
-0.017911725 -0.02098012 -0.0962249 -0.0016186412 -0.088290654 0.18905926 0.042362522 0.22893289
0.15811598 0.0551038 -0.18235034 -0.018835358 0.11929295 -0.30086336 -0.06419686 -0.31091505
-0.1482821 -0.0072641294 0.012608595 0.098435976 -0.13019721 -0.27660894 0.038422637 -0.057363115
-0.025793795 0.030801311 0.016224768 -0.17617865 -0.12962487 0.012651182 0.028813487 -0.00964373
-0.2192302 0.08704578 0.13768534 0.14145961 0.0941542 -0.14585589 -0.05495501 -0.1025319
0.10283528 -0.06405348 0.12942187 0.059945207 -0.042560544 0.15397142 0.1636275 0.024990967
-0.004662709 0.025112508 -0.038354974 -0.091660276 0.092643544 0.1920214 0.040895984 0.16452159
0.016638706 0.07340172 0.019610148 -0.006751553 0.22801891 -0.019363642 -0.027552864 -0.18920016
-0.25972408 -0.0106661385 -0.07108254 -0.011479063 -0.025743669 -0.14344382 0.24063641 -0.124754876
0.041027565 0.010784632 0.11331943 0.06614058 -0.029878503 -0.09321326 0.0059759915 -0.019465497
0.119188845 0.034411218 0.066082664 0.06164311 0.22165254 -0.19261275 -0.13931048 0.11126135
-0.097493164 -0.039907485 -0.12782599 0.040612794 -0.11318037 -0.2151144 -0.054129247 0.2189222
-0.004933414 0.009277615 0.058540408 -0.11488344 -0.0012687744 0.15782522 -0.14473332 -0.0041584345
0.004769028 -0.025588408 0.08206643 0.07446171 0.11364596 0.08814273 0.022426814 -0.041654326
0.052467722 0.048629254 -0.057845235 0.018606944 0.1316547 0.10871256 0.31518045 -0.0057480177
0.112628326 -0.05029607 -0.01802437 0.17997654 0.30088946 -0.18979375 0.109293565 0.0929572
-0.21775998 -0.14020377 0.026345592 -0.1942699 0.008069466 0.021505097 0.1221253 -0.0073548346
0.060814034 -0.22489098 -0.1957476 0.082659125 0.017088657 0.07140659 0.13779727 0.07531682
-0.14260559 -0.019784182 -0.024300715 -0.009035205 0.035462696 -0.035244543 -0.018049425 0.09859947
-0.11027045 0.024914004 -0.057685144 -0.08410301 0.0122911185 -0.06431682 0.15489091 -0.095880635
-0.1738981 -0.047399655 -0.049121786 0.15678136 -0.105985634 0.139254 0.031518266 0.020898476
-0.033028156 0.0914712 -0.20779353 -0.065986335 0.071870655 0.0076897643 -0.074454114 -0.033281486
-0.07579199 0.08210387 0.033056624 -0.101463094 0.04792844 0.12007839 0.13072854 0.065326795
0.24773994 0.038777135 0.111404836 -0.20233865 0.012444827 -0.20016378 -0.14675103 -0.3088266
-0.03264081 0.08664615 0.16516078 0.32093102 0.0552471 -0.23875403 -0.053211845 -0.1913552
0.038430694 -0.20274971 0.07870719 0.04328055 0.15389639 -0.24449599 0.12565297 -0.06728335
-0.08749244 -0.21415281 0.003455488 0.103013664 0.15324959 0.025243582 -0.1431765 -0.05213032
-0.15305373 -0.0046885773 0.016633283 0.064619325 0.04843253 -0.18499723 -0.1271651 -0.019017246
00000000: 1e36 e83c 05b8 a63c c6bc b13c 4748 663e
00000010: 8faa 06bc 28b6 853e b285 c3bd 7d9b bbbd
00000020: a53d b83d a6ed a3bc 0753 083e d5ef 3dbe
00000030: a01a 6ebe 8518 fb3d bb02 a8bd 92fd b7bd
00000040: 7db3 043e 6016 213e 7187 5d3d 0dd7 b43e
00000050: eadf 51be 4381 ac3b e60a 153d 1f23 5fbd
00000060: 71ae 57bd 5d6d b33d 395d 0cbe f994 26be
00000070: ab87 223e c501 88be 99bd 753e e40c bebd
00000080: 9cbb 92bc 80de abbc 8f11 c5bd 9628 d4ba
00000090: bbd1 b4bd c098 413e 5384 2d3d 626d 6a3e
000000a0: 28e9 213e 86b4 613d 0cba 3abe 9c4c 9abc
000000b0: dd4f f43d c30a 9abe a579 83bd 4230 9fbe
000000c0: 43d7 17be ef07 eebb 4894 4e3c cd98 c93d
000000d0: 6b52 05be b09f 8dbe 0e61 1d3d 96f5 6abd
000000e0: 824d d3bc 0853 fc3c cee9 843c 2d68 34be
000000f0: 62bc 04be e746 4f3c 430a ec3c bc00 1ebc
00000100: e27d 60be 0f45 b23d 63fd 0c3e cada 103e
00000110: ebd3 c03d 3f5b 15be 8118 61bd 3ffc d1bd
00000120: 4e9b d23d 792e 83bd 2b87 043e 1b89 753d
00000130: f753 2ebd afaa 1d3e f88d 273e dbb9 cc3c
00000140: a3c9 98bb bfb8 cd3c 1b1a 1dbd 62b8 bbbd
00000150: e6bb bd3d 42a1 443e 8c82 273d 5978 283e
00000160: e54d 883c a453 963d 76a5 a03c 223c ddbb
00000170: ca7d 693e 80a0 9ebc 8bb6 e1bc b0bd 41be
00000180: 8efa 84be 07c1 2ebc b993 91bd ae12 3cbc
00000190: 63e4 d2bc f0e2 12be 6469 763e 7c7f ffbd
000001a0: 850c 283d 06b2 303c 0414 e83d b674 873d
000001b0: c3c3 f4bc 98e6 bebd 40d2 c33b 1b76 9fbc
000001c0: 4819 f43d c7f2 0c3d 5956 873d 7c7d 7c3d
000001d0: e2f8 623e 473c 45be 68a7 0ebe fedc e33d
000001e0: 7faa c7bd 0876 23bd d1e4 02be 9a59 263d
000001f0: 1ccb e7bd f346 5cbe a1b6 5dbd 242d 603e
00000200: 7aa8 a1bb 2301 183c 11c8 6f3d 0248 ebbd
00000210: 014d a6ba ef9c 213e f934 14be 7a43 88bb
00000220: 8245 9c3b c89e d1bc 7212 a83d 627f 983d
00000230: 37bf e83d 2d84 b43d 70b8 b73c ba9d 2abd
00000240: 65e8 563d 782f 473d 20ef 6cbd 976d 983c
00000250: 7dd0 063e b1a4 de3d 555f a13e de59 bcbb
00000260: aea9 e63d 4003 4ebd d8a7 93bc c54b 383e
00000270: 2f0e 9a3e 4b59 42be 4ed5 df3d 5860 be3d
00000280: 79fc 5ebe 9491 0fbe b6d2 d73c b0ee 46be
00000290: cb35 043c 752b b03c d41c fa3d d300 f1bb
000002a0: 2318 793d d249 66be 0f72 48be 3049 a93d
000002b0: 83fd 8b3c 9e3d 923d ba1a 0d3e b43f 9a3d
000002c0: 3307 12be 7012 a2bc 4b12 c7bc 6508 14bc
000002d0: 5541 113d 955c 10bd 63dc 93bc 85ee c93d
000002e0: 79d5 e1bd 7418 cc3c 4247 6cbd 333e acbd
000002f0: b060 493c 89b8 83bd b99b 1e3e 115d c4bd
00000300: 5812 32be 2426 42bd ed33 49bd 4b8b 203e
00000310: ff0e d9bd 9a98 0e3e 4c19 013d 4833 ab3c
00000320: 8848 07bd 4155 bb3d d4c7 54be d823 87bd
00000330: ec30 933d 6bfa fb3b 667b 98bd 2b52 08bd
00000340: d538 9bbd 1326 a83d 6266 073d e2cb cfbd
00000350: 9d50 443d a9eb f53d b4dd 053e 0eca 853d
00000360: 8aaf 7d3e c6d4 1e3d 3828 e43d dd31 4fbe
00000370: 63e5 4b3c bcf7 4cbe e745 16be 851e 9ebe
00000380: 5fb2 05bd 8973 b13d e81f 293e 1251 a43e
00000390: c84a 623d f07b 74be aaf4 59bd 9ef2 43be
000003a0: 8169 1d3d 9f9d 4fbe 3c31 a13d f246 313d
000003b0: 0497 1d3e 285d 7abe 2cab 003e dacb 89bd
000003c0: 3d2f b3bd e04a 5bbe 7875 623b d4f8 d23d
000003d0: 76ed 1c3e a1cb ce3c dc9c 12be 9a86 55bd
000003e0: 1eba 1cbe a3a2 99bb 8642 883c 2357 843d
000003f0: 3061 463d ea6f 3dbe 9137 02be 0eca 9bbc

position_embedding.3.bias f4 [64]
8.44813e-06 -4.9075185e-05 -4.1802457e-05 -2.6234264e-05 4.0374358e-05 -1.227026e-05 3.0335612e-05 -4.5108714e-05
-1.9147128e-05 -6.1086866e-06 8.646517e-05 -1.5800578e-06 -4.1856296e-05 -9.905327e-06 -1.5849946e-05 -3.336985e-05
-9.714065e-06 8.9160705e-05 4.673116e-05 -3.5974303e-05 4.962553e-07 1.5509579e-05 3.0057481e-05 -5.8407095e-05
5.3124128e-05 4.044123e-05 5.3112082e-05 -1.2779727e-06 -2.5619678e-05 5.465935e-06 -7.4358036e-06 -1.2870948e-05
3.741558e-05 8.836755e-06 -4.4042965e-05 1.8610877e-05 -4.9807277e-05 4.102058e-06 -4.5151037e-06 -4.214391e-06
7.659113e-06 8.722813e-05 -4.8735686e-08 5.6553304e-06 -2.1509554e-06 9.792626e-06 6.6207276e-06 -6.5478285e-05
-1.1955229e-05 1.4325647e-05 -0.0002386421 -0.000112345326 4.391645e-05 2.5553067e-05 -2.5682304e-05 -3.5016274e-05
-1.9531824e-05 -6.200011e-05 -1.2075041e-05 -3.2296546e-05 3.2170144e-06 -4.1068397e-05 6.475235e-05 -4.745371e-05
00000000: 71bc 0d37 14d6 4db8 0c55 2fb8 a711 dcb7
00000010: a357 2938 5edc 4db7 3b79 fe37 1d33 3db8
00000020: 259e a0b7 38f9 ccb6 a254 b538 5f12 d4b5
00000030: db8e 2fb8 0e2f 26b7 80f5 84b7 9bf6 0bb8
00000040: 97f9 22b7 cafb ba38 3301 4438 1de3 16b8
00000050: 6836 0535 911a 8237 f323 fc37 24fa 74b8
00000060: 99d1 5e38 719f 2938 aac4 5e38 cf86 abb5
00000070: d7e9 d6b7 0668 b736 1181 f9b6 4df0 57b7
00000080: acee 1c38 9341 1437 c6ba 38b8 8e1e 9c37
00000090: 28e8 50b8 69a4 8936 7280 97b6 5869 8db6
000000a0: a47f 0037 3fee b638 7451 51b3 ebc2 bd36
000000b0: 2259 10b6 024b 2437 9e27 de36 6351 89b8
000000c0: 5193 48b7 2f58 7037 003c 7ab9 f09a ebb8
000000d0: ee32 3838 cb5a d637 5470 d7b7 70de 12b8
000000e0: 46d8 a3b7 0e06 82b8 e895 4ab7 2776 07b8
000000f0: e3e3 5736 db40 2cb8 a7cb 8738 0809 47b8

position_embedding.4.weight f4 [64]
0.94018364 0.9338014 0.803136 0.66384876 0.84944975 0.8003739 0.89320123 0.68520606
0.7751714 0.97899705 1.1134721 0.83573574 0.7099817 0.87132376 0.6443668 0.7036122
0.6308418 0.88309246 0.8735247 0.9487911 0.9065341 0.7573155 0.9909278 0.82248205
0.8861399 0.61873287 1.003512 1.0193137 0.712697 0.57054365 0.92330736 0.6695769
1.0046805 0.7221779 0.78127253 0.81825507 0.97941935 0.97967935 0.66365904 0.74113077
0.7738709 0.7978757 0.9721456 0.77421486 0.75916964 0.6897959 0.82339436 1.0118544
0.8594804 0.8188611 0.9109705 0.71158326 0.9315013 1.0545013 0.86765367 1.2061465
0.8335298 0.85183644 0.889085 0.6593892 1.0813326 0.5976843 1.1659348 0.80440825
00000000: e0af 703f 9c0d 6f3f 529a 4d3f fef1 293f
00000010: 8a75 593f 4ee5 4c3f d6a8 643f aa69 2f3f
00000020: a271 463f 8d9f 7a3f 4186 8e3f c7f2 553f
00000030: 5cc1 353f 130f 5f3f 39f5 243f ee1f 343f
00000040: d97e 213f 5912 623f 519f 5f3f f9e3 723f
00000050: 9e12 683f 6edf 413f 72ad 7d3f 2f8e 523f
00000060: 11da 623f 4765 1e3f 1573 803f df78 823f
00000070: 5073 363f 260f 123f df5d 6c3f 6469 2b3f
00000080: 5f99 803f a7e0 383f 7a01 483f 2a79 513f
00000090: 3abb 7a3f 44cc 7a3f 8fe5 293f bfba 3d3f
000000a0: 671c 463f 9541 4c3f 89de 783f f232 463f
000000b0: f158 423f 7796 303f f9c9 523f 7284 813f
000000c0: e806 5c3f e2a0 513f 5d35 693f 522a 363f
000000d0: df76 6e3f e6f9 863f 8d1e 5e3f 0263 9a3f
000000e0: 3562 553f f411 5a3f 139b 633f bbcd 283f
000000f0: 1b69 8a3f d701 193f 5a3d 953f b3ed 4d3f

position_embedding.4.bias f4 [64]
-0.1677767 -0.073972926 -0.01924015 0.122837946 -0.014276137 -0.00077771244 0.0661252 0.2888059
0.003481446 -0.33104894 -0.018098583 -0.34280193 -0.28698394 -0.07402528 -0.111327656 0.03833196
0.54495937 -0.4207466 -0.14925487 -0.016591428 -0.4405676 -0.07144384 -0.5063935 -0.28583884
-0.037131466 -0.08572409 0.01842287 -0.30285034 -0.20932524 0.05887767 -0.41729298 -0.093722954
-0.11150188 -0.18373565 0.39501154 -0.20057526 -0.090794414 -0.20386566 0.14173293 0.025256265
-0.43080243 -0.23022556 -0.48120436 -1.2551873 -0.13526252 -0.29538733 -0.60843086 -0.22697805
0.12585792 -0.036126535 -0.13926087 0.12415058 -0.61346084 -0.45981553 0.042279944 -0.06914493
0.07657219 -0.073802315 -0.18724903 0.026968066 0.12689526 0.06407338 -0.043153934 -0.08799057
00000000: a8cd 2bbe 1e7f 97bd 859d 9dbc 7692 fb3d
00000010: 75e6 69bc 66df 4bba a66c 873d 5ede 933e
00000020: f928 643b 3f7f a9be 7b43 94bc bc83 afbe
00000030: 8fef 92be 919a 97bd c1ff e3bd f901 1d3d
00000040: 7582 0b3f 196c d7be 45d6 18be bfea 87bc
00000050: 1492 e1be 2651 92bd 01a3 01bf 7859 92be
00000060: 2a17 18bd 1d90 afbd 8feb 963c 330f 9bbe
00000070: 5b59 56be b629 713d 6da7 d5be d2f1 bfbd
00000080: 195b e4bd 3325 3cbe f43e ca3e 9a63 4dbe
00000090: 6cf2 b9bd 29c2 50be 7022 113e 3ae6 ce3c
000000a0: 2392 dcbe 40c0 6bbe 6b60 f6be faa9 a0bf
000000b0: 4282 0abe 023d 97be 20c2 1bbf ef6c 68be
000000c0: e6e0 003e 6bf9 13bd 679a 0ebe a942 fe3d
000000d0: c50b 1dbf f16c ebbe bc2d 2d3d db9b 8dbd
000000e0: e1d1 9c3d ab25 97bd 36be 3fbe 22ec dc3c
000000f0: d5f0 013e e738 833d 2ec2 30bd 6634 b4bd

position_embedding.4.running_mean f4 [64]
-0.057983976 -0.12305364 0.15759686 -0.15286613 0.14273985 -0.08628438 -0.0903818 -0.16666384
-0.14230908 -0.07033963 -0.40716726 -0.0744392 -0.046377074 0.29815072 -0.05476789 0.13919573
-0.077982105 -0.15291104 -0.05631939 -0.07638879 0.19975746 -0.011730423 -0.18669954 0.063932225
-0.12380797 0.1272725 -0.19580545 -0.27457562 0.0018376289 0.1537219 -0.008197948 0.01515647
0.2014085 0.012839274 -0.27937928 -0.13219713 -0.1304463 -0.01711294 0.18341653 -0.179859
0.0632649 0.051744062 -0.28637972 0.29271865 0.017898144 -0.024428174 -0.17616965 -0.25528026
-0.03910858 -0.20538305 -0.26163745 0.101355754 -0.12276486 -0.12565872 -0.18862502 -0.22860272
-0.17454599 0.08744327 -0.117410466 0.13705747 -0.2692883 0.11793482 0.14575154 0.007920572
00000000: 9b80 6dbd 8c03 fcbd 1261 213e f088 1cbe
00000010: 652a 123e ddb5 b0bd 181a b9bd eda9 2abe
00000020: 79b9 11be 390e 90bd 3a78 d0be 9473 98bd
00000030: e3f5 3dbd 36a7 983e 4c54 60bd 5389 0e3e
00000040: 15b5 9fbd b694 1cbe 29af 66bd ba71 9cbd
00000050: 388d 4c3e f630 40bc 2a2e 3fbe e6ee 823d
00000060: 088f fdbd b953 023e 3981 48be 2d95 8cbe
00000070: 98dc f03a 4669 1d3e b050 06bc d852 783c
00000080: 083e 4e3e d15b 523c cd0a 8fbe af5e 07be
00000090: b793 05be 7030 8cbc 8bd1 3b3e f52c 38be
000000a0: 0791 813d 95f1 533d 5da0 92be 38df 953e
000000b0: 219f 923c 981d c8bc d165 34be 18b4 82be
000000c0: 5230 20bd ef4f 52be 58f5 85be 9b93 cf3d
000000d0: 256c fbbd aeac 00be eb26 41be d516 6abe
000000e0: 2fbc 32be 7515 b33d e674 f0bd cb58 0c3e
000000f0: 28e0 89be d087 f13d e43f 153e 49c5 013c

position_embedding.4.running_var f4 [64]
0.033553697 0.08322359 0.04318168 0.013048543 0.055754792 0.01632358 0.0354288 0.012844521
0.01930425 0.032318313 0.046158977 0.058933076 0.010597081 0.0617156 0.009285076 0.015769662
0.028344568 0.030825943 0.020226499 0.020855106 0.031899724 0.011098663 0.023330297 0.017999519
0.017115371 0.04002957 0.05556573 0.05293901 0.010921425 0.025112811 0.023379764 0.028724266
0.083117865 0.021949219 0.0467094 0.06651795 0.061699945 0.059276115 0.041169077 0.029045563
0.04280831 0.041672252 0.026428929 0.06822075 0.025396416 0.04981567 0.021617342 0.044618748
0.052710272 0.026756797 0.028345542 0.035793457 0.01553167 0.046123676 0.033811614 0.040318873
0.033972386 0.026563484 0.03681595 0.028679632 0.10848015 0.0075556543 0.09128407 0.0146328285
00000000: 9a6f 093d 2171 aa3d 46df 303d 8ec9 553c
00000010: 235f 643d 07b9 853c ca1d 113d d371 523c
00000020: f223 9e3c 3560 043d 3211 3d3d cf63 713d
00000030: 619f 2d3c 7fc9 7c3d 6e20 183c 612f 813c
00000040: de32 e83c b086 fc3c 0bb2 a53c 54d8 aa3c
00000050: 49a9 023d 2bd7 353c 2e1f bf3c ba73 933c
00000060: 8935 8c3c 0cf6 233d e498 633d 93d6 583d
00000070: c7ef 323c 62b9 cd3c eb86 bf3c 274f eb3c
00000080: b339 aa3d d9ce b33c 5b52 3f3d 903a 883d
00000090: 15b9 7c3d 83cb 723d e8a0 283d f6f0 ed3c
000000a0: c457 2f3d 86b0 2a3d 7b81 d83c 52b7 8b3d
000000b0: 250c d03c 840b 4c3d da16 b13c 26c2 363d
000000c0: bae6 573d 1231 db3c e934 e83c 299c 123d
000000d0: 8c78 7e3c 2eec 3c3d 0c7e 0a3d 6725 253d
000000e0: a126 0b3d aa9b d93c 52cc 163d 8cf1 ea3c
000000f0: d72a de3d 6c95 f73b 24f3 ba3d 88be 6f3c

feature_aggregation.0.weight f4 [128, 32]
0.044126302 -0.049573183 0.04820553 0.08591851 -0.08318327 0.07492832 -0.02654858 -0.10184571
-0.014035775 -0.0829246 0.08616712 -0.045191023 -0.010491053 -0.027245123 -0.113692984 -0.019791253
-0.04027361 -0.061695516 -0.019064128 -0.0634338 -0.08020884 -0.0149121145 -0.018207878 0.06911996
-0.04662317 0.07937326 -0.042137668 -0.09371697 -0.015207721 0.053061455 -0.024747506 0.07712765
0.069442675 0.06859995 -0.10474669 0.0040612817 0.12070746 0.110613614 0.032267347 -0.021569146
-0.116222285 0.037932202 0.12712304 -0.020998862 -0.071717404 -0.13855727 0.08405311 0.11196861
0.045704603 -0.13036527 0.014855905 0.063797556 0.106264345 0.10229002 -0.082463436 -0.13275918
-0.09284852 0.08686312 -0.063675694 -0.12176753 0.054024022 -0.07579638 0.09754957 -0.11203413
-0.09418377 -0.029875755 0.06284107 0.0935677 -0.07229074 -0.095631756 -0.023349887 -0.024619645
-0.028147666 -0.088227026 -0.037230484 0.15929958 -0.007057671 -0.055467952 -0.10928185 0.034499094
0.1346826 -0.089341365 -0.12211078 0.06556888 0.003978042 -0.011286636 0.067617185 0.10183043
-0.1430485 0.02415194 0.10506076 -0.12269687 0.006245243 -0.0518906 0.088256635 0.12614219
-0.059854187 -0.007818438 0.0599453 -0.0848111 -0.13486366 0.099822685 0.0052701393 -0.058245227
0.102773435 0.0032386524 -0.079027906 -0.035576846 -0.067089625 -0.025245579 -0.034861423 -0.096406646
-0.05675945 -0.030040605 -0.02291997 0.02028065 0.11160116 0.01896643 0.109645754 0.03437194
0.10444478 0.054574277 -0.13242158 0.10040197 0.022562005 0.03584463 -0.0042187623 -0.046301607
0.011699509 -0.06591804 0.004704616 -0.13710831 -0.03046834 -0.019035926 -0.025440622 -0.10381083
0.009570624 -0.05137248 0.073185004 0.089648366 -0.052171696 -0.03807584 -0.12327325 -0.13668
0.023903968 0.119614966 -0.11371469 0.084792316 -6.5243617e-06 -0.06143102 -0.12737334 -0.05080337
0.05225792 0.0032969436 0.106731035 -0.008171024 -0.11750337 0.007543499 0.118191816 0.004851326
0.028104115 -0.08884346 0.06816314 -0.07268816 0.08240206 -0.006165778 -0.0075206906 -0.019987851
-0.010632914 0.03842099 0.08342254 -0.040597036 -0.106199495 0.103689134 -0.0643393 0.027682
0.07627849 0.03217252 0.014672009 -0.030516084 -0.07544713 -0.084161356 -0.08130618 -0.032577425
0.05909383 -0.0761368 -0.069414526 0.05530188 0.05829786 -0.12201406 0.10424697 0.044419736
-0.06427376 -0.10701916 0.066067 0.11147329 -0.018034033 -0.14500688 -0.12021195 -0.060421564
0.0928158 0.06976752 0.0031318197 -0.12320329 -0.10803415 -0.089084916 0.06018651 0.061384
0.009334871 0.06365111 -0.0978365 -0.002680443 -0.10097042 0.010801795 -0.08483725 -0.12665343
0.062354837 0.049028046 0.10107269 0.12375485 0.10277864 0.11453612 -0.08564726 0.11122929
-0.07647133 -0.0804676 0.08385904 -0.014134791 0.11474838 0.11399645 0.016569268 0.061379444
-0.031457532 -0.019141247 0.019439062 0.120448105 0.087714486 0.071035355 0.0024774896 0.081108965
-0.10181416 0.09815642 0.0010263368 0.09543254 0.095536254 -0.114649124 -0.117672615 -0.07321715
0.013896721 -0.13893346 -0.08247479 -0.073842764 -0.023855975 -0.06517436 0.10803707 0.097107835
00000000: c8bd 343d 400d 4bbd 2973 453d 0bf6 af3d
00000010: fe5b aabd 0574 993d 687c d9bc 7c94 d0bd
00000020: 4ff6 65bc 5fd4 a9bd 6378 b03d 391a 39bd
00000030: aae2 2bbc 2a31 dfbc ded7 e8bd 4421 a2bc
00000040: f1f5 24bd 70b4 7cbd 602c 9cbc 95e9 81bd
00000050: 8844 a4bd f151 74bc b028 95bc c48e 8d3d
00000060: f0f7 3ebd 738e a23d 8c98 2cbd afee bfbd
00000070: ce29 79bc f856 593d 48bb cabc 1af5 9d3d
00000080: f637 8e3d 217e 8c3d 6f85 d6bd 8014 853b
00000090: 7935 f73d 6489 e23d c42a 043d c7b1 b0bc
000000a0: f305 eebd cc5e 1b3d 8b2c 023e ce05 acbc
000000b0: 93e0 92bd f5e1 0dbe 0924 ac3d cc4f e53d
000000c0: c034 3b3d 797e 05be 2f66 733c 4ba8 823d
000000d0: 1fa1 d93d 6e7d d13d 97e2 a8bd 06f2 07be
000000e0: 5d27 bebd 4be5 b13d 6768 82bd 4161 f9bd
000000f0: 4b48 5d3d 223b 9bbd 12c8 c73d 2672 e5bd
00000100: 6ce3 c0bd 00be f4bc d2b2 803d 6ca0 bf3d
00000110: 2b0d 94bd 95da c3bd 4348 bfbc 23af c9bc
00000120: ef95 e6bc 5fb0 b4bd fe7e 18bd 6e1f 233e
00000130: 0944 e7bb 5d32 63bd 2acf dfbd ec4e 0d3d
00000140: 3cea 093e 9bf8 b6bd 3715 fabd fa48 863d
00000150: 3c5a 823b 95eb 38bc e17a 8a3d 798c d03d
00000160: 4e7b 12be 4ada c53c 192a d73d 7f48 fbbd
00000170: e5a4 cc3b 3d8b 54bd e5bf b43d 6b2b 013e
00000180: aa29 75bd e818 00bc 3489 753d 71b1 adbd
00000190: b319 0abe d66f cc3d 22b1 ac3b 8c92 6ebd
000001a0: e17a d23d 923f 543b 62d9 a1bd 07b9 11bd
000001b0: 4966 89bd d1cf cebc daca 0ebd d970 c5bd
000001c0: 997c 68bd b717 f6bc a9c2 bbbc 9b23 a63c
000001d0: 268f e43d 7d5f 9b3c f48d e03d 97c9 0c3d
000001e0: 25e7 d53d 4789 5f3d 8699 07be 8c9f cd3d
000001f0: f4d3 b83c d2d1 123d 8b3d 8abb c1a6 3dbd
00000200: 4caf 3f3c 0a00 87bd 2e29 9a3b 1f66 0cbe
00000210: bd98 f9bc 3bf1 9bbc da68 d0bc c69a d4bd
00000220: 1bce 1c3c f36b 52bd 05e2 953d 9099 b73d
00000230: fdb1 55bd 69f5 1bbd b076 fcbd d8f5 0bbe
00000240: 41d2 c33c b1f8 f43d 3fe3 e8bd 98a7 ad3d
00000250: d7eb dab6 189f 7bbd 286e 02be 3217 50bd
00000260: 670c 563d 8911 583b cd95 da3d c2df 05bc
00000270: 9ba5 f0bd 752f f73b 8d0e f23d dff7 9e3b
00000280: 9a3a e63c 8ff3 b5bd 1e99 8b3d 88dd 94bd
00000290: 69c2 a83d 4b0a cabb 2070 f6bb 90bd a3bc
000002a0: ac35 2ebc 545f 1d3d 70d9 aa3d 1449 26bd
000002b0: 1f7f d9bd f85a d43d 53c4 83bd 5dc5 e23c
000002c0: e637 9c3d 55c7 033d de62 703c defc f9bc
000002d0: 0684 9abd ca5c acbd db83 a6bd e86f 05bd
000002e0: 5f0c 723d 9ced 9bbd 3429 8ebd 3984 623d
000002f0: bdc9 6e3d 82e2 f9bd 6f7f d53d 78f1 353d
00000300: f6a1 83bd dd2c dbbd 234e 873d 1c4c e43d
00000310: 1cbc 93bc af7c 14be af31 f6bd 9a7c 77bd
00000320: 3616 be3d 46e2 8e3d 373f 4d3b 0252 fcbd
00000330: 0241 ddbd 2772 b6bd 2186 763d ca6d 7b3d
00000340: 49f1 183c 835b 823d 815e c8bd 5faa 2fbb
00000350: 94c9 cebd 03fa 303c 27bf adbd 70b1 01be
00000360: c967 7f3d a2d1 483d 33ff ce3d 2f73 fd3d
00000370: 9c7d d23d ea91 ea3d d567 afbd 2fcc e33d
00000380: 009d 9cbd 32cc a4bd 4abe ab3d 9c95 67bc
00000390: 3301 eb3d f976 e93d 46bc 873c 0369 7b3d
000003a0: 9dd9 00bd 1bce 9cbc ab3e 9f3c 7fad f63d
000003b0: a7a3 b33d fc7a 913d 615d 223b 751c a63d
000003c0: f183 d0bd 3c06 c93d 2686 863a 2372 c33d
000003d0: 83a8 c33d 29cd eabd 57fe f0bd e0f2 95bd
000003e0: 13af 633c 9344 0ebe 8be8 a8bd e03a 97bd
000003f0: 9b6d c3bc 237a 85bd 8a42 dd3d 79e0 c63d

feature_aggregation.0.bias f4 [128]
9.252665e-08 -9.356177e-08 1.0806233e-07 -7.460294e-09 3.7659927e-08 -2.9895705e-08 1.502262e-07 -8.200322e-08
-3.000711e-08 8.808243e-07 -1.6195057e-07 -6.0499936e-08 -4.9971867e-08 3.1847655e-08 6.427346e-08 -1.3225912e-08
-2.8882965e-07 3.9522806e-07 -2.5888471e-09 -6.256439e-08 -1.4726247e-08 -8.9419906e-08 3.562289e-08 3.8773322e-08
4.116432e-08 2.4884622e-08 -3.489603e-07 4.0164036e-10 -7.997319e-08 -4.7395304e-07 -1.5253069e-07 -8.8471445e-08
1.1680671e-08 8.131662e-08 -2.298351e-08 1.1736405e-07 -2.713494e-07 2.3300295e-07 6.497351e-08 6.468338e-08
-7.2415276e-08 7.668665e-08 -8.0194305e-09 -8.835138e-08 1.551058e-07 -9.3320864e-08 2.8454993e-08 6.359951e-08
3.6640937e-08 1.7081275e-07 -4.5816733e-09 5.7763298e-08 -1.8813289e-07 4.876737e-08 9.7314235e-08 -2.6644588e-07
-1.6867395e-08 6.244638e-08 -5.0383843e-08 -2.3557797e-08 -4.7376968e-08 -3.713239e-08 5.4278395e-08 -1.4953146e-08
-2.1165073e-08 -2.431601e-08 -3.8515324e-08 -3.00877e-07 -8.0524416e-08 -7.3060016e-09 -2.8270161e-08 1.0654689e-08
2.6820436e-08 -5.599745e-07 -3.6302357e-08 1.7370532e-07 -1.9151933e-08 -3.0821294e-08 7.207242e-08 7.499495e-08
9.393523e-08 5.1058056e-08 1.7482615e-09 -1.8234116e-08 -1.3787343e-07 -1.3671577e-07 -5.7672924e-08 -2.452233e-07
1.6698792e-08 1.02834264e-07 -8.870422e-08 8.305105e-08 3.014989e-08 6.4249576e-08 -9.4708994e-08 -1.4970064e-08
-1.6595653e-08 -8.2874045e-09 -4.3896824e-09 -6.66139e-08 -1.3574441e-08 2.6300407e-07 2.8766891e-08 -3.9729745e-08
2.5880391e-08 -1.1809128e-08 1.2822687e-07 1.3711376e-07 4.1881556e-08 -1.16199644e-07 5.3282232e-08 -2.9073918e-08
1.6702893e-07 -2.3829798e-09 -1.8715477e-08 4.7570657e-07 1.1623813e-08 -3.995297e-07 1.8571628e-08 2.3421062e-07
1.0514911e-07 3.1049686e-07 1.7177474e-07 -1.14575904e-07 -8.944036e-08 1.935056e-07 -6.009285e-08 -1.383837e-07
00000000: 10b3 c633 21ec c8b3 e50f e833 b82a 00b2
00000010: 87bf 2133 ad66 00b3 dd4d 2134 bf19 b0b3
00000020: 2be1 00b3 c971 6c35 a2e4 2db4 31ec 81b3
00000030: a6a0 56b3 dec8 0833 b506 8a33 2d38 63b2
00000040: 7210 9bb4 bb2f d434 7be7 31b1 235b 86b3
00000050: b8fe 7cb2 1d07 c0b3 c8ff 1833 b887 2633
00000060: a6cc 3033 ddc1 d532 bd58 bbb4 dbcd dc2f
00000070: babd abb3 9c73 feb4 51c7 23b4 b1fd bdb3
00000080: 22ac 4832 49a0 ae33 466d c5b2 9209 fc33
00000090: faad 91b4 5d2f 7a34 9187 8b33 10e8 8a33
000000a0: b882 9bb3 efae a433 d4c5 09b2 afbb bdb3
000000b0: 288b 2634 b067 c8b3 316d f432 3394 8833
000000c0: 235f 1d33 a768 3734 d36c 9db1 6b17 7833
000000d0: 9301 4ab4 4a74 5133 11fb d033 0b0c 8fb4
000000e0: cbe3 90b2 431a 8633 9f65 58b3 255c cab2
000000f0: 877b 4bb3 7f7b 1fb3 ba1f 6933 5172 80b2
00000100: 7dce b5b2 79df d0b2 0c6c 25b3 3888 a1b4
00000110: c4ec acb3 4508 fbb1 bed6 f2b2 d10b 3732
00000120: c362 e632 2851 16b5 ddea 1bb3 c183 3a34
00000130: 8c83 a4b2 5f60 04b3 3bc6 9a33 e90c a133
00000140: 70b9 c933 ed4a 5b33 7c47 f030 3fa1 9cb2
00000150: 5c0a 14b4 25cc 12b4 0db4 77b3 3ca7 83b4
00000160: 0871 8f32 bcd5 dc33 a97d beb3 cc59 b233
00000170: 287e 0133 94f9 8933 d262 cbb3 8597 80b2
00000180: 3a8e 8eb2 6460 0eb2 0ed4 96b1 610d 8fb3
00000190: 0635 69b2 0133 8d34 101b f732 51a3 2ab3
000001a0: 954f de32 18e1 4ab2 bcae 0934 8b39 1334
000001b0: 42e1 3333 6e89 f9b3 6fd8 6433 39be f9b2
000001c0: 9058 3334 d3c1 23b1 c5c3 a0b2 9d64 ff34
000001d0: 12b2 4732 f27e d6b4 7187 9f32 537b 7b34
000001e0: 56ce e133 5db2 a634 1571 3834 c50c f6b3
000001f0: 5c12 c0b3 6ac6 4f34 650c 81b3 9f96 14b4
