checkpoints/bimodal_NCL_Pretrained_Match.pth (torch, 372158 bytes, 47 tensors)

preactivation.0.weight f4 [32, 1]
000000 84 c3 58 3f c0 80 97 be 28 1d 0d 3e 90 85 33 be
       0.84673333 -0.29590416 0.13780653 -0.17531419
000010 be 24 6c bf 6a 34 4f 3f 64 f7 d4 be 28 ff 80 3e
       -0.92243564 0.8093935 -0.41594994 0.2519467
000020 86 c7 3b bf a8 26 a7 3e b4 97 66 3f 50 9a 9a be
       -0.73351324 0.3264668 0.9007523 -0.30195856
000030 28 55 38 be a0 d4 a1 bd c8 a3 19 3f 08 22 23 3f
       -0.18001235 -0.07901883 0.60015535 0.637238
000040 1c ed c6 3e 08 78 55 3e 46 61 2b 3f 38 ec 7b 3f
       0.38852775 0.2084657 0.669453 0.98407316
000050 10 40 b5 3e 7c 47 55 bf 08 f5 08 3e cc d8 de be
       0.35400438 -0.833122 0.13374722 -0.43524778
000060 50 f4 ee 3e 3a b5 0b 3f fc f9 9c be 54 37 59 3f
       0.4667077 0.54573405 -0.30659473 0.8485005
000070 0e 03 7e 3f b8 f3 2b bf f0 79 01 be d0 8f 05 bf
       0.9922341 -0.6716876 -0.12644172 -0.52172565

preactivation.0.bias f4 [32]
000000 0e c2 74 3f c0 66 26 be 10 be a5 be f8 ed 3d 3e
       0.95608604 -0.16250134 -0.3237157 0.18547809
000010 e4 e7 ad be 8e c8 2d 3f b4 e2 ad 3e 38 fc c2 be
       -0.3396598 0.6788415 0.33962023 -0.38083053
000020 70 57 b3 bd 28 59 98 be 10 f6 39 3f 72 36 7d 3f
       -0.08756912 -0.2975552 0.72641087 0.989112
000030 f6 90 16 bf cc cc db 3e 52 6b 73 bf 48 60 30 3e
       -0.5881494 0.42929685 -0.9508563 0.17224228
000040 14 19 f0 be 14 94 f9 be 76 e8 01 bf 32 ff 54 3f
       -0.46894133 -0.48745787 -0.5074533 0.832019
000050 84 18 64 3f a0 30 43 bf 7c 1c 1b bf 2c f3 02 3f
       0.8909991 -0.7624607 -0.6059034 0.511523
000060 b2 96 69 3f e0 d2 06 be 00 7d 53 bf c0 d5 da bc
       0.9124557 -0.1316638 -0.8261261 -0.026713252
000070 46 ca 02 3f cc 28 bb 3e 40 17 aa bd 60 35 02 3e
       0.51089895 0.36554563 -0.08305216 0.12715673

preactivation.1.weight f4 [32]
000000 00 00 80 3f 00 00 80 3f 00 00 80 3f 00 00 80 3f
       1.0 1.0 1.0 1.0
000010 00 00 80 3f 00 00 80 3f 00 00 80 3f 00 00 80 3f
       1.0 1.0 1.0 1.0
000020 00 00 80 3f 00 00 80 3f 00 00 80 3f 00 00 80 3f
       1.0 1.0 1.0 1.0
000030 00 00 80 3f 00 00 80 3f 00 00 80 3f 00 00 80 3f
       1.0 1.0 1.0 1.0
000040 00 00 80 3f 00 00 80 3f 00 00 80 3f 00 00 80 3f
       1.0 1.0 1.0 1.0
000050 00 00 80 3f 00 00 80 3f 00 00 80 3f 00 00 80 3f
       1.0 1.0 1.0 1.0
000060 00 00 80 3f 00 00 80 3f 00 00 80 3f 00 00 80 3f
       1.0 1.0 1.0 1.0
000070 00 00 80 3f 00 00 80 3f 00 00 80 3f 00 00 80 3f
       1.0 1.0 1.0 1.0

preactivation.1.bias f4 [32]
000000 00 00 00 00 00 00 00 00 00 00 00 00 00 00 00 00
       0.0 0.0 0.0 0.0
000010 00 00 00 00 00 00 00 00 00 00 00 00 00 00 00 00
       0.0 0.0 0.0 0.0
000020 00 00 00 00 00 00 00 00 00 00 00 00 00 00 00 00
       0.0 0.0 0.0 0.0
000030 00 00 00 00 00 00 00 00 00 00 00 00 00 00 00 00
       0.0 0.0 0.0 0.0
000040 00 00 00 00 00 00 00 00 00 00 00 00 00 00 00 00
       0.0 0.0 0.0 0.0
000050 00 00 00 00 00 00 00 00 00 00 00 00 00 00 00 00
       0.0 0.0 0.0 0.0
000060 00 00 00 00 00 00 00 00 00 00 00 00 00 00 00 00
       0.0 0.0 0.0 0.0
000070 00 00 00 00 00 00 00 00 00 00 00 00 00 00 00 00
       0.0 0.0 0.0 0.0

preactivation.1.running_mean f4 [32]
000000 00 00 00 00 00 00 00 00 00 00 00 00 00 00 00 00
       0.0 0.0 0.0 0.0
000010 00 00 00 00 00 00 00 00 00 00 00 00 00 00 00 00
       0.0 0.0 0.0 0.0
000020 00 00 00 00 00 00 00 00 00 00 00 00 00 00 00 00
       0.0 0.0 0.0 0.0
000030 00 00 00 00 00 00 00 00 00 00 00 00 00 00 00 00
       0.0 0.0 0.0 0.0
000040 00 00 00 00 00 00 00 00 00 00 00 00 00 00 00 00
       0.0 0.0 0.0 0.0
000050 00 00 00 00 00 00 00 00 00 00 00 00 00 00 00 00
       0.0 0.0 0.0 0.0
000060 00 00 00 00 00 00 00 00 00 00 00 00 00 00 00 00
       0.0 0.0 0.0 0.0
000070 00 00 00 00 00 00 00 00 00 00 00 00 00 00 00 00
       0.0 0.0 0.0 0.0

preactivation.1.running_var f4 [32]
000000 00 00 80 3f 00 00 80 3f 00 00 80 3f 00 00 80 3f
       1.0 1.0 1.0 1.0
000010 00 00 80 3f 00 00 80 3f 00 00 80 3f 00 00 80 3f
       1.0 1.0 1.0 1.0
000020 00 00 80 3f 00 00 80 3f 00 00 80 3f 00 00 80 3f
       1.0 1.0 1.0 1.0
000030 00 00 80 3f 00 00 80 3f 00 00 80 3f 00 00 80 3f
       1.0 1.0 1.0 1.0
000040 00 00 80 3f 00 00 80 3f 00 00 80 3f 00 00 80 3f
       1.0 1.0 1.0 1.0
000050 00 00 80 3f 00 00 80 3f 00 00 80 3f 00 00 80 3f
       1.0 1.0 1.0 1.0
000060 00 00 80 3f 00 00 80 3f 00 00 80 3f 00 00 80 3f
       1.0 1.0 1.0 1.0
000070 00 00 80 3f 00 00 80 3f 00 00 80 3f 00 00 80 3f
       1.0 1.0 1.0 1.0

kp_conv.weights f4 [27, 1, 32]
000000 46 ae 0d bd 5a 70 89 bd 91 93 4e bb 63 eb f7 bd
       -0.03459003 -0.067108825 -0.0031521062 -0.12105443
000010 1d 9b 10 3e 8b c8 25 bd a6 5f 93 3d 47 7f 3a 3c
       0.14121671 -0.040474456 0.07195978 0.011382884
000020 35 fb f6 3d 84 2d d8 3d 1e 9c c8 3d b5 de 37 bd
       0.12059633 0.105555564 0.09795402 -0.044890124
000030 a6 a3 67 bc fb ef 0e be 90 2b d2 3d ec 4b 89 bd
       -0.014138138 -0.13958733 0.10262215 -0.06703934
000040 68 3a ad bd c5 49 2e 3d e9 60 3b bd 42 be e9 3c
       -0.08458406 0.04255082 -0.045746718 0.028533105
000050 12 a5 bb bd d5 f3 fb bd 73 7b b6 bd 8a 01 fa bd
       -0.09162344 -0.12302367 -0.08910265 -0.12207325
000060 2a a3 aa bd 18 fc 13 3d c5 fe 54 bc f0 22 c7 bd
       -0.08331902 0.036129087 -0.013000195 -0.09723461
000070 4b 3f 2b 3d ea 96 b5 3d f0 c8 31 3c 41 e5 c2 bb
       0.041808408 0.08866675 0.01085113 -0.0059477394
000080 38 af 0f be a2 aa d3 3d 90 cc b6 3d a7 f9 44 bd
       -0.14031684 0.1033528 0.08925736 -0.04808965
000090 2a eb 34 bd 08 ce 13 3d 53 27 24 be d1 5a 1f be
       -0.044169582 0.03608516 -0.16030626 -0.15561987
0000a0 b6 51 31 be c3 22 37 bc 44 9c a1 3b da f3 61 3d
       -0.17316326 -0.011177721 0.0049319584 0.055164196
0000b0 f3 ab ec bd da 68 31 be c5 31 fe 3d c6 83 25 3e
       -0.11556234 -0.17325154 0.124118365 0.16163549
0000c0 28 81 71 bd 94 7b 3f 3d 49 a7 ca 3d 6e 75 f1 3c
       -0.058961064 0.046748713 0.09895188 0.02947494
0000d0 ff 73 c1 bd 68 9e d3 3d fe 98 a4 3d 6c a1 5e 3d
       -0.094459526 0.10332948 0.080369934 0.054353163
0000e0 f4 27 c8 3d a4 82 0a bc 1a bc 28 be 08 8e 09 3e
       0.097732455 -0.008453999 -0.16478005 0.13433087
0000f0 66 b9 8e 3d 06 5a 69 bd 37 a2 d6 bc d9 9e ef bc
       0.06968956 -0.05697062 -0.026200397 -0.02925055
000100 53 31 86 3d d5 3f f8 3c 11 11 27 3e 72 ec 2b 3d
       0.065523766 0.030303875 0.16315104 0.04197354
000110 17 cc 93 3d 98 f7 20 3c d7 c6 5f bc 21 c1 b1 3d
       0.072166614 0.009824656 -0.013658247 0.086794145
000120 ea a4 03 be 23 af 7a 3b 02 02 f9 3d 51 90 70 bd
       -0.12855878 0.0038251362 0.12158586 -0.05873138
000130 01 29 92 3c db 4f d7 bc ad 4b 5e 3d fc c8 2d 3c
       0.017841818 -0.026283195 0.05427139 0.010607
000140 68 9b f0 3d 87 e7 3e 3b c7 2f 7f 3d a4 26 87 3c
       0.117483914 0.00291297 0.062301423 0.016497917
000150 50 ed 9f 3d 49 ec 5c bd 0c 5b f7 3d 42 26 e2 bc
       0.07808936 -0.053936277 0.12077913 -0.027606133
000160 87 24 05 3d 40 35 e1 bd 67 e7 98 3d fd 86 aa bb
       0.03250554 -0.10996485 0.074660115 -0.00520408
000170 b8 a6 34 3b 0e 58 67 bd 44 b6 8c 3d 4c d9 18 3e
       0.0027565192 -0.05648046 0.06870702 0.14926642
000180 4f 7f b4 3d e7 66 ef 3d a1 b0 c9 3d d6 df 09 bd
       0.08813345 0.11689549 0.098481424 -0.033660732
000190 d4 d9 64 bd cd 5d de bd e3 4f 8d 3d 14 f1 e1 bd
       -0.0558718 -0.10857735 0.06900003 -0.1103231
0001a0 03 8e 3b bd cd 0c 3f bc 36 16 7d bd e1 1e 7a bd
       -0.04578973 -0.011660767 -0.06178876 -0.061064605
0001b0 6d 82 d1 bd aa 4c c3 bd 6f 6a 7d bd 10 db e1 bd
       -0.10229955 -0.09536107 -0.06186908 -0.11028111
0001c0 e7 e8 1d be 73 2a db 3c 54 04 b4 bd f8 1d 17 3e
       -0.15420876 0.02675364 -0.08789888 0.14757526
0001d0 4a f8 b2 bd 93 3e a3 3d 69 73 99 3d d7 29 e5 3c
       -0.08738764 0.079709195 0.07492716 0.027974052
0001e0 de 65 56 3d 64 a4 0c 3d e4 14 02 bc 6e db d1 3d
       0.052343242 0.034336463 -0.007939551 0.10246931
0001f0 97 88 e6 bd 0e 75 37 3e b6 86 a0 3d ba 80 0b bd
       -0.11256521 0.17915747 0.07838194 -0.03405831
000200 41 5e eb bd 88 b7 ce 39 2a c3 d5 3d 5c 30 89 bd
       -0.11492587 0.00039428123 0.10437615 -0.06698677
000210 26 7c f4 3d 39 6e 9f bd 03 23 f7 3c 99 45 ea 3d
       0.11937742 -0.07784695 0.030168062 0.11439056
000220 1d 23 0f bc af e8 24 bd 82 9e 9d 3b 12 e5 c7 3d
       -0.008736399 -0.040260967 0.0048101554 0.097604886
000230 73 53 1b 3b fb 07 fe 3d b7 c1 52 bc 96 b0 04 be
       0.0023700863 0.12403866 -0.012863568 -0.12957987
000240 39 b0 00 be 9f c4 d0 3d d5 80 61 bc ae b8 82 bd
       -0.12567224 0.101937525 -0.013763626 -0.06382881
000250 af 0d d1 3d 95 16 b5 bc 42 5a 64 3b 3c 7b 1e 3e
       0.10207688 -0.022105495 0.0034843837 0.15476698
000260 ae b5 ee bd 43 ad d1 3d 7d bc c1 3b da 90 ae 3c
       -0.116557464 0.10238125 0.005912362 0.021309305
000270 07 9a ac b9 c2 77 e4 3d 8a 5e 31 be 32 a2 3b bd
       -0.00032921156 0.111556545 -0.1732122 -0.04580898
000280 e8 39 05 bd c4 6c c6 bd bb 28 eb bc 70 59 f7 3c
       -0.032525927 -0.09688714 -0.028705945 0.030194014
000290 75 c0 59 3c 83 53 0a be 02 0c 2c bd f5 e9 9c bd
       0.013290514 -0.1350842 -0.04200364 -0.07661811
0002a0 94 22 c5 3d e5 ff bd bd 2b 70 c4 3c af ce ef bd
       0.09625736 -0.09277324 0.023979267 -0.11709344
0002b0 9c 3d 05 be c9 26 a0 3d d7 fb 83 3d 9e 9d f3 3d
       -0.13011783 0.07819898 0.06444519 0.118952975
0002c0 d4 82 cd 3d 43 eb 07 bd cd 38 3a bd 1c ed 94 bd
       0.10034719 -0.033183347 -0.045464326 -0.072717875
0002d0 2d 07 e0 3c 93 fb 84 3c 05 2a 26 bd bd 80 16 be
       0.027347172 0.016233241 -0.040567417 -0.14697547
0002e0 53 70 c9 3d 1a 5f 15 be fd 78 38 bd af fb c9 bd
       0.09835877 -0.1458706 -0.04503726 -0.09862458
0002f0 63 38 7d bd 36 07 04 3e cf 21 8e bd c8 da 65 3d
       -0.061821353 0.12893376 -0.06940042 0.05611685
000300 41 41 93 3c 2d c0 82 bd 73 4f c4 3d fc 5b a6 3d
       0.017975451 -0.06384311 0.09585466 0.081230134
000310 ed d0 be 3b 94 82 f9 3c 38 c7 48 3d 58 13 77 3d
       0.0058232457 0.030457772 0.049018115 0.060321182
000320 8b 43 13 bc 83 34 0f bd e9 a4 3d 3d 94 1a d2 3d
       -0.0089882715 -0.03496219 0.04629985 0.102589756
000330 ac b3 d8 bc f5 9b 87 3d 3b 6e da bc ef 7b da bd
       -0.026452862 0.06621543 -0.02666389 -0.1066817
000340 cb fe 91 bc 15 d9 12 3c 6f c2 df 3d 48 60 c2 3c
       -0.01782169 0.008962889 0.10925757 0.023727551
000350 ee 15 f5 3b 34 40 a5 3c 8a ee 11 3e ad 1a 86 3d
       0.007479421 0.020172216 0.14251152 0.06548057
000360 10 a2 dd 3d a8 84 b6 bb fc e3 35 3d ca 9c c8 bc
       0.108219266 -0.005570013 0.044406876 -0.024488825
000370 4e dc 24 bd bd 03 0a bd 55 71 d4 bd 00 fb ba bc
       -0.04024916 -0.03369497 -0.10373179 -0.022824764
000380 22 f1 ad 3d a7 bc 05 be f9 97 d4 3c 69 00 cf 3c
       0.08493258 -0.13060246 0.025951372 0.02526875
000390 50 22 8c 3d b7 1b 1f 3e aa db 8b 3d 53 82 1c be
       0.06842482 0.15537916 0.06829007 -0.1528409
0003a0 41 0a 35 3b a9 d0 05 3d b5 09 21 3e 3f 88 b0 bd
       0.002762452 0.032669697 0.15726359 -0.08619737
0003b0 a0 42 e2 bd 84 31 d8 bd 0e 8c e3 3d 61 3b 10 be
       -0.11047864 -0.10556319 0.11110698 -0.14085151
0003c0 30 67 a2 bc 6e 7c 86 bd d8 9a bf 3c 1b 9c c5 3d
       -0.019824594 -0.06566702 0.023389265 0.096489154
0003d0 d9 fa 9a bd 2d 74 21 3d 8e 7b 2f bd e7 77 bd 3c
       -0.07567377 0.039417434 -0.04284244 0.023128463
0003e0 3d 83 b8 bd 3b b2 e7 bd ce 8c db 3d 0c 6a e9 3d
       -0.09009407 -0.11313292 0.10720216 0.1139718
0003f0 24 f7 66 3d 3d 4a 09 3e af b6 89 bc 79 45 36 3d
       0.056388035 0.13407226 -0.016810743 0.044499848

kp_conv.offset_bias f4 [81]
000000 9a 61 3d bc c0 bc 02 b8 61 cc 67 bc 87 28 14 bc
       -0.011558915 -3.1170202e-05 -0.014147849 -0.009042866
000010 9d 39 80 bc 7f 69 9e bc 78 1f 80 bc f8 46 c0 bc
       -0.015652472 -0.019337414 -0.015640005 -0.02347134
000020 bb cf c0 3c 10 53 93 bb a2 26 30 bc dd e1 83 bc
       0.023536554 -0.004495986 -0.010751398 -0.016098911
000030 2c 71 e4 3c 4c b5 89 3d ab 20 57 bd c4 97 23 3b
       0.027885996 0.06724033 -0.05252139 0.0024962286
000040 d1 be 0f bd d3 35 dc 3b 22 f0 62 bc da ae dc 3c
       -0.035094086 0.0067202835 -0.013851197 0.026938844
000050 fd ba b6 3b 65 07 6e 3b f8 0e 03 bc ec 6e 60 3c
       0.00557649 0.0036320325 -0.007999174 0.013698321
000060 07 03 14 3a 35 e8 19 3b c7 75 f6 b9 4d 47 c0 3b
       0.0005646203 0.0023484353 -0.00047008527 0.0058678747
000070 43 7e ab bc 4a 8d ce ba 98 51 72 3c 08 d1 b2 3c
       -0.02093423 -0.001575866 0.014789961 0.02182819
000080 c8 5e 02 bc 5e 1c 09 3c 45 19 22 3c b3 49 cf 3c
       -0.007957168 0.00836858 0.00989372 0.025303697
000090 06 e4 f2 bc 19 62 0c bc 43 1d f1 bb 08 51 74 3d
       -0.029649746 -0.00856831 -0.0073582246 0.05964759
0000a0 df 7a 27 bd f8 3c 98 bb bc 58 3d 3b bc a2 82 bc
       -0.040888663 -0.00464594 0.0028892 -0.015946738
0000b0 70 42 f0 bc ed eb 3a 3d 72 22 03 bd 6b b7 a7 bc
       -0.029328555 0.045635153 -0.03201527 -0.020473203
0000c0 af f3 5b bc a9 67 3a 3c d1 73 a5 bb 71 5c 2a 3c
       -0.013424798 0.011377254 -0.005049207 0.010398016
0000d0 69 08 96 bc b5 e6 de 3c 83 d9 96 3b af 20 db 3c
       -0.018314557 0.027209619 0.004603566 0.026748983
0000e0 4d 4b 7d bc f3 54 dc bb b4 4a af bc a9 ff ac 3c
       -0.015459848 -0.006723994 -0.021397926 0.021118002
0000f0 d6 9f 2b 3d e5 15 14 bd 4f ab d1 3c 1c ec 97 bc
       0.04190048 -0.036153693 0.025594382 -0.018545203
000100 c1 1c 09 3d c1 14 12 bd 07 74 dd bb df 9b cb bc
       0.033474687 -0.035664324 -0.0067582163 -0.024854599
000110 32 81 50 ba 83 e9 ad 3b 00 22 9f bc 8d c5 5d bc
       -0.0007953822 0.005307378 -0.019425392 -0.013535869
000120 fb 3d fd 3c 45 b0 e9 3a 25 8a 12 3c cb be b0 3b
       0.030913344 0.0017829022 0.008944069 0.005393838
000130 4c 34 9a bc 8d 16 83 bb 31 63 75 3c b3 08 43 bc
       -0.018823765 -0.004000491 0.014977262 -0.0119039295
000140 8c 1c 27 3c
       0.010199677

kp_conv.offset_conv.weights f4 [27, 1, 81]
000000 9f 96 21 3d d5 db 26 3d 52 f6 24 bd ee a2 b8 bd
       0.039450284 0.040736992 -0.04027397 -0.09015451
000010 e9 b5 90 bd e9 9a 24 bc a1 de 02 bd d6 c6 a4 3d
       -0.070659466 -0.010046699 -0.031950597 0.080457374
000020 6b c8 9f 3d c6 77 0b 3d 9c 63 af bd 8f 6e 88 3c
       0.078018986 0.03404977 -0.08563921 0.016654281
000030 11 f9 05 be 9c c3 43 bd 44 cd e7 3b a2 64 52 3c
       -0.13083293 -0.04779397 0.00707403 0.012841376
000040 d6 dc e2 bc 9c ea 9b 3d 71 c4 a1 bd f2 28 cb 3d
       -0.027693193 0.076131076 -0.07898796 0.09919919
000050 94 01 86 3c d4 37 a1 bc 20 22 c1 bd 7a fb aa bd
       0.016358174 -0.019679941 -0.09430337 -0.083487466
000060 76 15 b9 3c 05 34 1e b9 5d 19 7a 3c 5e 4b a0 3c
       0.022593241 -0.00015087433 0.015264836 0.019567188
000070 2f c6 c1 bd 0d 97 2e 3d ee 69 0d 3a e0 fe 80 bd
       -0.09461629 0.042624522 0.0005394508 -0.062986135
000080 23 20 9a bb 4b 51 95 bd df cd f2 3b 49 a4 06 3d
       -0.004703538 -0.07290896 0.0074097957 0.03287152
000090 7e bd 90 3c 7e a6 a8 3d 61 60 bc 3d 7c 00 b9 bd
       0.017668482 0.08234881 0.0919807 -0.090332955
0000a0 c5 36 81 3b 5e c8 1e 3c da cd f9 bb b2 e2 ae 3c
       0.0039432966 0.009691326 -0.0076234164 0.021348331
0000b0 45 32 51 3d 87 37 85 bd 3c b1 5d 3d b3 6b 6e 3c
       0.05107333 -0.065047316 0.054124102 0.014552045
0000c0 06 ee 90 bd 17 33 54 bc 8b a7 35 3d 94 2b a7 3c
       -0.07076649 -0.012951634 0.044349235 0.020406522
0000d0 5c f2 36 bd 0e 04 b2 bd 15 05 b3 bc 01 7c 43 bd
       -0.044664726 -0.086921796 -0.02185301 -0.04772568
0000e0 97 ed 93 3c 14 12 6b bd 1a d5 6e bd d7 fa 29 3b
       0.018057628 -0.057390288 -0.0583087 0.0025936866
0000f0 61 ec 7e bd 2b ba aa bc 22 ef c0 3d 4f cb ba 3d
       -0.062237147 -0.020840725 0.09420611 0.09120809
000100 e6 13 d6 bd 86 36 39 bc 74 f8 95 bd 45 80 7e 3c
       -0.10453014 -0.011304503 -0.07322779 0.0155335115
000110 5c 40 96 3d 49 eb 42 3d 84 9d a6 3d 7d 48 23 bc
       0.07336494 0.047587667 0.081355125 -0.009966013
000120 02 ef 83 3d 64 dd ae 3d 94 91 49 bd 3d 0e 82 bc
       0.064420715 0.08538321 -0.0492111 -0.01587593
000130 fe 32 e1 3d db 36 70 3d 02 93 83 bd 00 33 4f bc
       0.10996054 0.058646064 -0.06424524 -0.012646437
000140 31 e3 0b 3d fa 55 27 bd 01 df 57 3c a9 bd 4c bd
       0.034152213 -0.040853478 0.013175727 -0.04998556
000150 39 03 01 3d ad f9 59 bc 1a 5b 07 3d de 82 9c 3c
       0.031497214 -0.013304156 0.033045866 0.019105371
000160 57 bc 7c bd a4 57 83 bd a0 c3 1a bc 2d 2d 0f 3c
       -0.061703052 -0.064132005 -0.009446055 0.008738798
000170 a2 04 91 bd 14 ce e9 3c b0 b0 18 3c 3c fc b7 bc
       -0.07080962 0.028540649 0.009319469 -0.022459142
000180 ae 95 a4 3d 65 b2 96 bc fe b0 4b bd 53 2e 12 bc
       0.08036362 -0.018395612 -0.04972934 -0.008922177
000190 23 fb 47 bd 81 ed a9 bd 49 75 20 3d 17 25 62 3d
       -0.048823487 -0.082972534 0.03917435 0.055211153
0001a0 d0 8e 51 3d 3a 22 44 bc 8d d2 43 3c af 1e a5 bc
       0.051161587 -0.011971051 0.011952055 -0.020156233
0001b0 6d 0d 2b bd af d6 b9 3b e4 69 19 3c 90 c7 5c 3d
       -0.04176085 0.005671344 0.009363625 0.053901255
0001c0 65 d3 aa 3c 5d 87 95 bd 20 01 7b 3d 28 e7 59 bd
       0.020852754 -0.07301209 0.06128037 -0.053198963
0001d0 06 d8 d4 bd e6 e3 3d bd 7a 3b 65 3c 8e 87 7f bd
       -0.10392766 -0.04635992 0.013991231 -0.062385134
0001e0 8c 25 00 3d 13 ed 0e bc 87 5a 55 3c 72 81 69 bd
       0.031285807 -0.008723515 0.013022072 -0.057008214
0001f0 74 86 e4 bd 1a 4f 13 3d 69 59 11 3d 6a c8 95 3d
       -0.111584574 0.03596411 0.03548566 0.073136166
000200 99 98 2d 3c ab c8 7f bc d1 34 8b ba ad 78 73 bd
       0.010595464 -0.015611808 -0.0010620599 -0.059441257
000210 0d e0 b1 3d 29 a4 a0 3d 12 bf a3 3d 8d 05 93 bd
       0.086853124 0.07843811 0.07995428 -0.07178793
000220 bf bf 57 bd ab bf 20 bd 67 fa 89 3d b7 df 98 bc
       -0.052673098 -0.03924529 0.067372136 -0.018661363
000230 2f 19 91 3d e1 6b ba bd 23 bc 09 3d 92 3c 76 bd
       0.070848815 -0.091026075 0.033626687 -0.060116358
000240 73 74 be 3c e1 3e 4e 3d c1 bc 94 bc cf c1 37 3d
       0.023248887 0.050352935 -0.018156411 0.044862565
000250 f0 f4 a8 3d 4c b9 25 bd 5d f2 30 3d b2 16 3a bc
       0.08249843 -0.040459916 0.043199886 -0.01135795
000260 cc 17 65 3d 60 0c a0 bd d5 a7 7a 3d d5 35 bd bc
       0.055930898 -0.0781486 0.061195213 -0.023096958
000270 7a c4 9a 3c a5 57 23 bd d2 cf 8c bd 22 c4 05 bd
       0.018892515 -0.039878506 -0.06875576 -0.03265775
000280 bb f4 12 bd 83 30 04 bd c0 d7 ad 3d 44 63 82 bc
       -0.035877924 -0.032272827 0.08488417 -0.015916474
000290 d1 3d 85 bd f7 a1 b0 3d be 95 b7 3d b9 8f 3c 3d
       -0.06505931 0.08624642 0.08964108 0.046035502
0002a0 12 d7 9b bd 28 7a 75 3c 29 04 3c bd da 4b 94 bd
       -0.07609381 0.014982738 -0.045902405 -0.0724103
0002b0 f6 bc 92 3c 0f 84 90 bd b9 b1 e6 bc e0 82 67 3d
       0.01791237 -0.07056438 -0.028160917 0.056521297
0002c0 23 4f 8b 3c f2 88 58 bd 5c 8a ae 3d 23 4c 12 3d
       0.017005509 -0.052864976 0.08522484 0.03571714
0002d0 ff bc c2 ba 5a 9a 02 bd 80 63 99 bc 4b 0e 97 bd
       -0.0014857351 -0.031885482 -0.018724203 -0.07375773
0002e0 46 1c 00 be 1f ca c1 bd d9 84 62 3c 2e e2 4c 3b
       -0.12510785 -0.0946238 0.013825619 0.0031262743
0002f0 5a 87 9e 3c 1d ee dd bd f6 7d 9d 3d 55 eb 13 bc
       0.01935165 -0.10836432 0.07690041 -0.0090282755
000300 f2 67 16 bd 4a 56 db 3c 20 c9 19 bd 7f 55 e4 bc
       -0.036720224 0.026774544 -0.037545323 -0.027872799
000310 63 8d 48 bd f8 93 8c 3d 98 37 9c 3d 84 11 59 bd
       -0.048962962 0.0686416 0.07627791 -0.05299522
000320 76 88 ba 3d 07 88 95 bc bf f2 c6 3d e1 17 dc 3d
       0.09108059 -0.01825334 0.09714269 0.10746742
000330 79 04 8b 3c ae c9 49 3d fe af c2 3c 66 fd 02 3d
       0.016969906 0.049264602 0.02376556 0.03197994
000340 11 2b 3c 3d a0 79 9c 3d 26 b9 06 bd 0a 5e 23 3c
       0.04593951 0.07640386 -0.032891415 0.009971151
000350 b7 f8 95 3c 9c 93 b8 bc 6e 34 b4 3c 81 10 b6 bc
       0.018307073 -0.022531323 0.021997657 -0.022224667
000360 5a 00 d1 3d 3e 50 1e 3d a8 df 36 3c a1 7a 1f bd
       0.10205145 0.038650744 0.011161722 -0.038935307
000370 99 2d 20 bd 5e 28 ce bc 16 5b 25 bd 57 05 04 3c
       -0.039105985 -0.025165733 -0.04037007 0.008057914
000380 73 7e 0a 3d 74 1b 01 bd c2 0c 67 bd 78 3c 6b bc
       0.033811998 -0.031520322 -0.05640865 -0.014357679
000390 09 94 73 3d 7c 15 a5 3d 64 47 e2 3c 7e b3 51 bd
       0.05946735 0.080607384 0.027621932 -0.051196568
0003a0 ff 7e 3d 3d fd 92 35 3d 51 62 97 bc ec 4e 8f 3a
       0.04626369 0.044329632 -0.018479498 0.0010933555
0003b0 3b 73 be 3b dd a0 40 3c 5b 99 65 bd 0b 2b de bc
       0.0058120764 0.011757103 -0.056054454 -0.027120134
0003c0 78 5a c1 bd 51 c8 29 bd 9f 33 08 bd 50 79 98 bd
       -0.09441084 -0.041450802 -0.033252355 -0.074450135
0003d0 a3 8d f0 bc 61 bc 8f bc 5d ba 87 3d 2f 73 86 bd
       -0.029364413 -0.01754588 0.06627343 -0.06564938
0003e0 32 a6 b2 3d d9 75 2b 3c 7a c6 80 3d e5 59 12 3c
       0.087231055 0.010465109 0.062878564 0.008932565
0003f0 fe 73 32 3d ea 45 4e 3d 52 94 0d bd a7 36 83 3d
       0.04356765 0.050359644 -0.034565277 0.064069085

position_embedding.0.weight f4 [32, 3]
000000 94 d8 10 3c 97 20 66 3c cf b8 88 bf c0 8d b9 3c
       0.008840699 0.014045856 -1.0681399 0.0226506
000010 97 4a 18 3c 0c 9d 5e 3f ee ca 67 be df aa 0b be
       0.009295127 0.86958385 -0.22636005 -0.13639401
000020 6d f8 a2 3c 4e bd 64 3b 14 f8 86 3e e3 7a 84 be
       0.01989385 0.0034902873 0.26361144 -0.25875005
000030 38 92 2e be b0 2c d6 3d 5b 75 32 3c 5f 90 1d 3d
       -0.17047966 0.10457742 0.010892238 0.03846776
000040 d5 21 2e bc 60 66 59 bf ca 68 13 3d 92 72 a4 bc
       -0.010628183 -0.84921837 0.035988607 -0.020074163
000050 a3 e4 1b 3f 51 22 95 bc 88 6e 29 be 35 84 28 3f
       0.60895747 -0.01820484 -0.1654607 0.6582673
000060 1b c0 3c be 4b 89 86 3e da 35 f6 3e e8 f0 d9 bc
       -0.18432657 0.2627662 0.4808796 -0.02660413
000070 77 39 9c 3e 59 a4 90 bd 99 72 00 be 26 73 0c bc
       0.30512592 -0.07062597 -0.12543716 -0.008572375
000080 70 8d 97 3e 76 3e 12 be 1f 47 3d 3d fd 73 1e be
       0.29600096 -0.1428164 0.046210404 -0.15473934
000090 ca e5 86 bd 25 3b 84 bc 4c e6 02 bf cc ff 18 3e
       -0.065867975 -0.016141484 -0.51132655 0.14941329
0000a0 99 31 8a 3c 32 9a 97 be ea 1d 37 be 61 b0 5c be
       0.016869353 -0.2960983 -0.17882505 -0.21551658
0000b0 e8 c4 69 3c f3 38 b4 3e 09 a2 6b 3e 88 ba b5 bd
       0.0142681375 0.351997 0.2301103 -0.08873469
0000c0 06 19 2c be d2 2c a2 bd 62 91 5c 3d 61 01 91 bd
       -0.1680642 -0.07918705 0.053849585 -0.07080341
0000d0 a2 ad 6e be 68 e8 01 bf d8 75 a8 bd b5 b2 41 3d
       -0.23308423 -0.5074525 -0.08225602 0.04728957
0000e0 2c 5d d3 be 83 37 b5 3c 10 e6 95 bd 24 b3 2b bf
       -0.41282022 0.022121197 -0.073192716 -0.6707022
0000f0 73 85 3e 3e ea 48 d8 3e 8d ca 66 be 8b f2 00 3e
       0.18605594 0.4224313 -0.22538204 0.12592523
000100 6e f4 21 be b5 0a 78 be ae 73 6e bd 39 74 9f bd
       -0.15815899 -0.24222834 -0.05821579 -0.077858396
000110 00 14 f8 be 39 46 cf bd 3e 51 8e 3e 75 50 e5 3c
       -0.4845276 -0.10120816 0.27796358 0.027992466
000120 36 d0 44 bc 0f 5a 87 bc ff 0c 24 bf 98 9d da 3b
       -0.012012532 -0.016522435 -0.6408233 0.0066716187
000130 12 36 04 be b4 21 61 bf cc e4 3b bd 31 a1 03 bd
       -0.12911251 -0.8794205 -0.045872495 -0.032136146
000140 1b 98 4f 3f 01 b2 5a 3d 69 0f c9 bd 37 96 e4 3e
       0.8109147 0.053392414 -0.098173924 0.44645855
000150 be 77 ea 3d 5f c0 07 be f0 fb ee be 05 31 af bb
       0.1144862 -0.13256977 -0.46676588 -0.0053464198
000160 6d 8e be 3e a2 b4 00 be a7 99 39 bc 7d 3c 23 3e
       0.37218037 -0.12568906 -0.0113281375 0.15941043
000170 9b fb 10 3f 25 a3 7a bc f6 27 2b 3d 29 27 5b bf
       0.5663392 -0.015297686 0.041786157 -0.8560663

position_embedding.0.bias f4 [32]
000000 6a d8 97 35 34 da 97 b3 e0 7a 66 33 61 f3 fb 34
       1.1313361e-06 -7.0711764e-08 5.3662802e-08 4.6929475e-07
000010 d5 44 45 b3 77 d7 26 35 c6 2e a8 b3 1c 8f 3a b4
       -4.593024e-08 6.215336e-07 -7.831618e-08 -1.7374663e-07
000020 64 d3 05 b2 98 e5 10 b4 cf 26 f6 b3 ed f6 86 33
       -7.789684e-09 -1.3494571e-07 -1.1462327e-07 6.284777e-08
000030 d9 b0 05 35 07 96 70 b3 cd 7f 96 33 8a 0c 7c 32
       4.980371e-07 -5.6015804e-08 7.008166e-08 1.4671182e-08
000040 22 c2 d1 b2 2a 5d 22 34 63 7c b8 b3 b6 9b 2c 35
       -2.4419084e-08 1.5121319e-07 -8.5907935e-08 6.430158e-07
000050 88 66 16 34 a7 2a 33 b3 64 58 46 34 43 b5 e1 b2
       1.4007139e-07 -4.1715477e-08 1.8472343e-07 -2.6275876e-08
000060 68 90 98 34 57 b8 2e 35 1b 27 25 35 16 d3 0f b4
       2.8417276e-07 6.50883e-07 6.1524196e-07 -1.3394705e-07
000070 0e 8c 94 34 74 68 a8 b4 b4 6f 91 b3 88 f4 78 35
       2.766905e-07 -3.1368438e-07 -6.772407e-08 9.274304e-07

position_embedding.1.weight f4 [32]
000000 1c 00 75 3f 38 a0 09 3f 1c 9f b4 3e e8 83 2f 3f
       0.9570329 0.537601 0.3527764 0.6856065
000010 e1 f8 a9 3e 50 18 56 3f ef 40 c9 3e 12 a2 22 3f
       0.33197692 0.8363085 0.39307353 0.6352855
000020 64 d2 02 3f 97 f7 0d 3f 00 08 e0 3e 6e c5 8d 3e
       0.5110228 0.5545592 0.43756104 0.2768969
000030 5e cc 14 3f ee 88 26 3f 2d 60 dd 3e 0a 08 fd 3e
       0.5812434 0.6505269 0.4323744 0.49420196
000040 d6 4e 05 3f 7c 62 07 3f 6e 0d 09 3f 06 4c 29 3f
       0.5207342 0.5288465 0.5353612 0.6613163
000050 c3 34 10 3f 27 03 c0 3e 4c e8 f2 3e 25 0a fd 3e
       0.5633051 0.37502405 0.47442853 0.49421802
000060 9c 2a 1f 3f 4c 99 36 3f a9 15 15 3f 48 1e 0b 3f
       0.6217439 0.7132766 0.58236176 0.5434308
000070 e9 3e 13 3f a6 3f 30 3f bc 58 27 3f 6e 77 60 3f
       0.5751787 0.6884712 0.6536977 0.87682235

position_embedding.1.bias f4 [32]
000000 2f 91 12 bf 5a e9 7e 3e 51 6b 20 3c 60 5e cc be
       -0.5725278 0.24893704 0.009791211 -0.39915752
000010 78 75 b3 bd 82 82 e1 be ce 63 64 3e a2 a4 04 3e
       -0.0876264 -0.44044882 0.22303697 0.12953427
000020 3b 0e 2c bd 0e 75 13 be f2 d1 fe 3b 5f 14 b1 3c
       -0.04200576 -0.14400122 0.0077764923 0.021616159
000030 04 c6 21 be 5d 43 70 be 02 37 4c bc a9 49 8f 3d
       -0.15798193 -0.23463197 -0.012464287 0.069964714
000040 54 a3 7b be 42 24 ab 3d f0 ac a8 be c4 ae f6 be
       -0.24574023 0.08356525 -0.3294444 -0.4818021
000050 97 24 79 bb 69 98 7a 3d 3a b0 2a bd bf d7 a2 be
       -0.0038016194 0.061180506 -0.04167197 -0.31805226
000060 4b cf 19 bf 59 7b 39 3d 16 05 ad 3e 90 37 1e be
       -0.6008193 0.04528365 0.33792943 -0.15450883
000070 6b 03 2d be 23 b2 47 3e ef 84 bc 3d e5 26 1d bf
       -0.16895835 0.19501548 0.092050426 -0.61387473

position_embedding.1.running_mean f4 [32]
000000 d5 c8 42 3f be c7 25 bf ea a0 45 3e ad 59 dc 3d
       0.76087695 -0.6475791 0.19299665 0.10759292
000010 19 2e b4 3d 36 86 16 3f 02 dc eb be 03 e1 d3 be
       0.08797855 0.5879854 -0.4606629 -0.41382608
000020 0f 15 93 be 08 19 94 bc 52 76 f2 bd c2 01 51 3e
       -0.28727004 -0.018078342 -0.11838974 0.20410827
000030 7d 7b d8 3e e7 49 c9 3d 00 50 3d 3e e5 f7 86 be
       0.42281714 0.09828549 0.18487549 -0.26361004
000040 eb 7e de 3d 08 3f f9 3e 20 d1 b0 3e 65 8d fa 3e
       0.108640514 0.48680902 0.3453455 0.48936
000050 e5 9f c8 bd 8e c6 02 3e 8a dd d4 3e 86 2a d6 bc
       -0.097961225 0.12771055 0.4157527 -0.026143324
000060 ff 00 f4 3e 2b f7 2a 3f e7 d9 0a bf 78 ba aa be
       0.4765701 0.667834 -0.5423874 -0.3334539
000070 67 f3 94 3e a9 48 5e bc 9f e5 e4 be c0 14 1e 3f
       0.2909195 -0.013567128 -0.44706437 0.6175041

position_embedding.1.running_var f4 [32]
000000 c1 0d 9a 3f e8 a4 8e 3f a9 8e df 41 cf cb 15 41
       1.2035447 1.1144075 27.944658 9.362258
000010 19 4d 6e 41 46 ce a9 3f ec 8a 8f 3f 53 c2 89 40
       14.893823 1.3266075 1.121427 4.304971
000020 2d 06 c0 41 b3 5f 48 41 c2 59 f1 40 2d fd 1f 41
       24.003016 12.523364 7.542207 9.9993105
000030 57 e1 22 40 25 fa 2b 41 f0 0e b5 41 2c 7e 89 42
       2.5450037 10.74857 22.632294 68.74643
000040 1c ee 6b 41 dd 03 28 41 70 96 6f 40 43 5f a6 3f
       14.745632 10.500943 3.743557 1.2997822
000050 f7 26 2a 42 d7 02 25 41 17 24 3a 40 82 4b 66 41
       42.53805 10.313193 2.9084527 14.393435
000060 c5 91 0f 3f 32 39 3e 40 f5 c9 dc 3f 4f 84 33 40
       0.560818 2.972241 1.7249132 2.8049505
000070 89 58 03 41 67 73 93 41 9c ef 6b 40 e0 22 91 3f
       8.209115 18.431349 3.6864996 1.1338768

position_embedding.3.weight f4 [64, 32]
000000 d6 35 c8 3c 9a 88 b5 3c 7d 73 b4 3c 19 c7 6b 3e
       0.024439733 0.022159863 0.022027725 0.23025168
000010 6c d4 0e bc 2d 7a 84 3e 11 ef bd bd 11 91 bb bd
       -0.0087176375 0.25874463 -0.09274114 -0.091585286
000020 22 ed b9 3d cc f4 9d bc 33 56 07 3e a5 fd 3f be
       0.090784326 -0.019281767 0.13216476 -0.18749101
000030 0c 10 6b be 9a e1 f0 3d 62 ed 9f bd 01 51 ad bd
       -0.2295534 0.1176178 -0.07808949 -0.08462716
000040 fa 0f 04 3e 25 53 1b 3e 63 ba 49 3d 5e 00 b2 3e
       0.1289672 0.15168436 0.049250018 0.34765905
000050 17 c8 51 be ea a2 19 3b c5 15 20 3d 2b 50 83 bd
       -0.20486484 0.0023443052 0.03908326 -0.06411775
000060 25 27 49 bd 0e 82 aa 3d 4d e5 0c be ed 08 1e be
       -0.049109597 0.08325587 -0.13759346 -0.15433092
000070 95 17 21 3e 6e 2a 88 be 15 7e 74 3e eb 05 b6 bd
       0.15731652 -0.2659487 0.23876221 -0.088878475
000080 98 a1 8e bc ac 26 d7 bc a3 29 bb bd f5 5e 04 bc
       -0.017411038 -0.026263557 -0.09138801 -0.00807928
000090 20 39 b7 bd 4c 40 41 3e 53 7c 34 3d 8f 30 65 3e
       -0.089464426 0.18872184 0.044063877 0.22381805
0000a0 25 45 23 3e 68 b4 67 3d 63 1b 38 be e7 57 86 bc
       0.15944345 0.056568533 -0.17979197 -0.016399337
0000b0 ef 52 f7 3d b6 ca 96 be ad 0c 79 bd 59 27 9c be
       0.12076365 -0.2945153 -0.060803104 -0.3049877
0000c0 dc 04 1a be 88 ad 0a bc c1 de 9f 3b 66 bc c8 3d
       -0.15040916 -0.008464225 0.0048788493 0.09801559
0000d0 e4 06 f7 bd 47 d8 8d be 11 02 24 3d 0f 66 57 bd
       -0.12061861 -0.2770407 0.040041033 -0.052587565
0000e0 13 d4 fa bc 3a 73 0d 3d 1c 9e 96 3c 89 ea 2b be
       -0.030618703 0.034533717 0.01838594 -0.16788687
0000f0 a1 22 f9 bd 06 e0 ba 3b df fb c6 3c 78 34 4c bc
       -0.12164808 0.005702975 0.024290023 -0.012463681
000100 c1 92 59 be c5 8f bb 3d 32 d8 0c 3e 82 f8 0f 3e
       -0.21247388 0.09158281 0.13754347 0.14059642
000110 b4 b5 be 3d 80 fd 11 be 00 f7 71 bd 0d 7b d0 bd
       0.09312001 -0.14256859 -0.05907345 -0.1017972
000120 0d 00 cf 3d a3 0a 81 bd 35 35 02 3e 2e 7e 65 3d
       0.101074316 -0.06300857 0.1271561 0.056028537
000130 a1 f3 30 bd 15 cf 19 3e 15 de 28 3e aa 31 b6 3c
       -0.043201093 0.15020402 0.16490968 0.022240479
000140 4e 22 1a bc 29 cb c0 3c 02 2d 32 bd 60 44 b6 bd
       -0.009407593 0.023534374 -0.043499954 -0.0889976
000150 56 7c b9 3d 22 27 40 3e d0 31 1e 3d bc 94 2c 3e
       0.09056918 0.18764928 0.038621724 0.16853613
000160 59 99 91 3c 74 8f 8f 3d 30 7a 90 3c 50 00 61 bc
       0.017773317 0.070097834 0.017636389 -0.013732985
000170 de 26 65 3e 55 44 a9 bc 8e e4 d5 bc 01 04 3c be
       0.22378108 -0.020662466 -0.02610996 -0.18360902
000180 27 14 83 be 97 1c 54 bc 90 fa 87 bd 8e 4a 25 bc
       -0.25601313 -0.0129462695 -0.06639588 -0.010088576
000190 56 70 d8 bc f8 d5 0f be fc d3 73 3e 97 a3 f1 bd
       -0.026420753 -0.14046466 0.23811334 -0.117987804
0001a0 92 48 33 3d c9 4c 45 3c 9f 30 e9 3d 6c 8b 86 3d
       0.04377038 0.012042233 0.11386227 0.06569561
0001b0 a2 a5 d6 bc b2 50 c6 bd 49 f7 57 3b 25 1c 95 bc
       -0.026202027 -0.0968336 0.003295379 -0.018201897
0001c0 db c1 e3 3d b1 d4 14 3d fa 9d 85 3d 75 b2 79 3d
       0.11120959 0.03633565 0.06524272 0.060961206
0001d0 d0 db 60 3e 91 9d 48 be da 15 0d be 94 4c e2 3d
       0.21958852 -0.19591357 -0.13777867 0.11049762
0001e0 ad b0 c7 bd 96 16 2f bd ae 0d 03 be 2b 4e 21 3d
       -0.09750495 -0.04274615 -0.12798187 0.039381187
0001f0 7f 95 d7 bd 48 f0 5d be cd bb 5f bd 0b 0d 5b 3e
       -0.10526561 -0.21673691 -0.05462246 0.21391694
000200 29 58 3f 3b de 0d 2a 3c 6d b9 73 3d 8f 4f eb bd
       0.0029196835 0.010379283 0.059503008 -0.11489784
000210 cf 93 f1 bb 7d 0e 22 3e 88 9c 11 be a6 80 ad 3a
       -0.0073723565 0.1582584 -0.14219868 0.0013237193
000220 95 33 44 3b 79 88 d0 bc f2 f8 a5 3d 39 ca 94 3d
       0.0029937972 -0.0254557 0.08104123 0.072651334
000230 b3 c8 dc 3d bc ed b0 3d ef 13 d3 3c cc bc 1d bd
       0.10780468 0.08639094 0.025766341 -0.03851013
000240 fe 84 6a 3d 6d 15 3e 3d 0f 84 63 bd 78 27 e7 3c
       0.057255737 0.046407152 -0.055545863 0.028217062
000250 a3 6c 03 3e 79 b5 db 3d 4c b5 a1 3e 0b 39 3a 38
       0.1283441 0.107279725 0.3158363 4.439898e-05
000260 72 fc d2 3d 7d e0 4c bd 13 a7 c8 bc e4 f1 31 3e
       0.10302056 -0.050018776 -0.02449373 0.1737743
000270 4f 4c 96 3e 71 e7 3a be aa 46 d8 3d ad fb b4 3d
       0.29355094 -0.1825235 0.10560353 0.08837066
000280 f7 e2 57 be 87 7c 0c be d8 82 b0 3c fa ea 39 be
       -0.21082674 -0.13719378 0.021546766 -0.18156043
000290 6e 04 48 3c 88 45 cf 3c 6d e1 f7 3d 2e b1 c2 bb
       0.012208087 0.02530171 0.121035434 -0.0059415316
0002a0 e1 66 74 3d 05 f7 65 be 95 a6 47 be 5b 2b b7 3d
       0.059668425 -0.22457512 -0.1949714 0.08943816
0002b0 10 73 cf 3c 0a 45 8c 3d ec 20 07 3e 04 28 84 3d
       0.02532342 0.06849106 0.13196152 0.06452945
0002c0 f6 21 0b be c7 b0 b1 bc 38 d6 ff bc 78 20 eb bb
       -0.13587174 -0.02169074 -0.031230077 -0.0071755014
0002d0 7d 40 20 3d b1 ca 03 bd e0 7c ae bc b8 8d cd 3d
       0.039124 -0.032175723 -0.02129978 0.10036796
0002e0 1c e8 d9 bd 7b 94 cf 3c ec fc 61 bd bb e4 a8 bd
       -0.106399745 0.025339356 -0.055172846 -0.08246752
0002f0 8e 49 85 3c cb 4f 91 bd 5f 2c 1f 3e 7d dc c5 bd
       0.016270425 -0.070952974 0.1554427 -0.096611954
000300 20 49 2d be e7 73 54 bd 63 bf 39 bd b6 ff 19 3e
       -0.16922426 -0.051868346 -0.045348536 0.15038952
000310 01 08 d4 bd 22 e2 0c 3e 10 28 fb 3c 16 e9 a4 3c
       -0.10353089 0.13758138 0.030658752 0.020130675
000320 8d d4 e3 bc bb 0d ba 3d 42 ca 54 be ac 58 83 bd
       -0.027811313 0.0908465 -0.2078028 -0.06413397
000330 a8 55 9e 3d f8 09 bc 3b 1a 60 9b bd a2 0e 17 bd
       0.077311814 0.005738493 -0.07586689 -0.03687919
000340 86 e8 a1 bd 2b ae a5 3d f5 d0 23 3d 2e da be bd
       -0.079056785 0.080898605 0.0399942 -0.09318958
000350 bf f2 35 3d 82 5c 03 3e 82 ff 03 3e bd ef 82 3d
       0.044420954 0.12828258 0.12890437 0.06393383
000360 8d 6a 75 3e 22 ac 05 3d 2c df e2 3d 22 3f 4e be
       0.23966427 0.03263486 0.11077723 -0.20141271
000370 1c 01 3c 3c ff e1 4b be cd 53 0b be 81 ca 98 be
       0.011474874 -0.1991043 -0.13606186 -0.29841998
000380 14 ac 07 bd 9a a8 b5 3d e3 1b 28 3e 17 f4 a2 3e
       -0.03312309 0.08870049 0.16416888 0.3182685
000390 59 60 46 3d 54 09 6e be a3 49 4d bd b5 22 43 be
       0.048431728 -0.23245746 -0.050119054 -0.19056208
0003a0 05 6e 1c 3d 85 95 4e be c1 6d 97 3d 34 b8 20 3d
       0.03819086 -0.20174225 0.07393981 0.03923817
0003b0 c1 f0 1c 3e f0 52 73 be bc 10 fd 3d 92 66 8e bd
       0.15326215 -0.23762107 0.123567075 -0.069531575
0003c0 39 76 b5 bd df d6 58 be bc 03 12 3b 4d ec cf 3d
       -0.0886044 -0.21175717 0.0022280058 0.10152493
0003d0 70 cd 1c 3e c4 92 d2 3c b6 1b 12 be b2 81 51 bd
       0.15312743 0.025704749 -0.14268383 -0.051149078
0003e0 e8 be 1b be bd 3e 32 ba 35 62 97 3c db 4a 82 3d
       -0.15209544 -0.000679951 0.018479446 0.06361934
0003f0 9a 1f 37 3d b1 07 3c be ea 51 fe bd 53 f5 7d bc
       0.044707872 -0.18362309 -0.124179676 -0.015500384

position_embedding.3.bias f4 [64]
000000 26 aa ef b5 ae c0 d4 b5 91 1e 5a 35 1f 4a 44 36
       -1.7856407e-06 -1.5851308e-06 8.125581e-07 2.924942e-06
000010 1c 78 54 b5 4a 24 e7 b5 46 89 62 b6 53 c3 b2 b6
       -7.9150936e-07 -1.7221403e-06 -3.3756528e-06 -5.327552e-06
000020 41 89 15 b6 17 7b 71 b6 0c d9 4f 35 fd 09 ca b5
       -2.2282622e-06 -3.5983446e-06 7.7429354e-07 -1.505308e-06
000030 5e 3e 61 b6 60 91 fc 35 73 05 0e b6 84 9c 33 35
       -3.3563915e-06 1.8817773e-06 -2.116282e-06 6.6910457e-07
000040 5d 69 d7 b5 8e 2e 75 b6 76 dc 5c b5 5e 97 bc b5
       -1.6049413e-06 -3.6534943e-06 -8.22772e-07 -1.4051145e-06
000050 06 6f 76 b4 d6 cc 56 b5 53 60 a6 36 41 31 a3 b5
       -2.2950925e-07 -8.001929e-07 4.958399e-06 -1.2158781e-06
000060 86 00 b0 b5 b5 44 1c b3 57 ca f9 34 00 7d 04 b3
       -1.3113174e-06 -3.638407e-08 4.6527086e-07 -3.0847332e-08
000070 7a ec b7 35 48 47 10 b5 25 6a 60 b5 25 df 30 35
       1.3703386e-06 -5.374791e-07 -8.3600963e-07 6.588983e-07
000080 ba 89 1c b3 07 98 91 b4 c3 85 08 b6 3d 2f 2d 36
       -3.6446842e-08 -2.711897e-07 -2.0343439e-06 2.5806505e-06
000090 b7 3b 41 b6 47 80 96 b5 e6 a0 06 b5 5f 56 0f 35
       -2.8794e-06 -1.1213205e-06 -5.015303e-07 5.339734e-07
0000a0 10 82 33 b5 ab f9 b1 36 8d 4b 27 b5 85 c0 49 34
       -6.687196e-07 5.3040762e-06 -6.232229e-07 1.8789622e-07
0000b0 8b d5 97 34 97 e8 c1 33 9c cd 0f b7 29 23 4e 36
       2.8281315e-07 9.029571e-08 -8.571336e-06 3.0716858e-06
0000c0 e1 42 4f b5 46 ab 20 b6 0b ee 8c b6 69 2a db 35
       -7.721083e-07 -2.3941552e-06 -4.200037e-06 1.6329114e-06
0000d0 0a ad 29 b7 71 5f bf b6 aa ae 2a b6 45 78 b4 36
       -1.0113474e-05 -5.7033544e-06 -2.5433642e-06 5.3784192e-06
0000e0 1f 8a 5e b5 9c 89 1f 36 76 6a a0 35 a2 b6 aa b5
       -8.290244e-07 2.3772945e-06 1.1951913e-06 -1.271914e-06
0000f0 fa 2d e0 b6 70 c0 a6 b5 98 6c d6 b4 74 c5 bc 35
       -6.6810726e-06 -1.242397e-06 -3.9939619e-07 1.4064558e-06

position_embedding.4.weight f4 [64]
000000 3e 26 6d 3f 34 85 6c 3f aa bf 49 3f 3f 32 27 3f
       0.9263648 0.9239075 0.7880808 0.65311044
000010 1f da 56 3f 92 1a 49 3f 26 f2 62 3f 2d fb 2c 3f
       0.83926576 0.7855617 0.8865074 0.67570764
000020 68 1e 45 3f ae bc 77 3f a5 0c 8c 3f 73 06 56 3f
       0.7699952 0.9677228 1.0941359 0.8360359
000030 9e 5d 31 3f 1f 0b 5b 3f b6 22 22 3f 69 54 31 3f
       0.69283473 0.85563844 0.63334215 0.69269425
000040 19 89 1d 3f ab 22 60 3f 42 a4 5c 3f 0b 05 70 3f
       0.6153732 0.875529 0.8618814 0.93757695
000050 8f b4 62 3f 9e 34 3e 3f bb 37 7a 3f a9 65 4e 3f
       0.8855676 0.7429904 0.9774129 0.8062387
000060 21 d2 5d 3f 8e 93 1c 3f 34 d4 7c 3f b5 c0 80 3f
       0.86648756 0.6116265 0.98761296 1.005881
000070 13 53 36 3f 6f 9b 10 3f d4 e1 68 3f 84 56 28 3f
       0.7122051 0.5648717 0.90969586 0.6575701
000080 41 7c 7d 3f 6c ec 37 3f d1 2e 45 3f 54 5d 50 3f
       0.9901772 0.71845126 0.7702456 0.8139241
000090 f5 fe 78 3f 50 28 78 3f d9 40 28 3f 26 25 3b 3f
       0.97264034 0.9693651 0.6572395 0.7310356
0000a0 8d db 42 3f 98 ac 4a 3f 22 2b 76 3f 98 ba 44 3f
       0.7611626 0.7916961 0.96159565 0.7684722
0000b0 dd 39 41 3f 79 3d 2e 3f 43 26 52 3f 23 30 7f 3f
       0.7547892 0.6806255 0.8208963 0.99682826
0000c0 3d 7a 59 3f 79 dc 4e 3f 78 4b 66 3f 43 df 32 3f
       0.84952146 0.80805165 0.89958906 0.6987192
0000d0 3f 4e 6b 3f 11 6a 85 3f 1e ab 5d 3f a7 c6 96 3f
       0.9191627 1.0422994 0.8658923 1.1779374
0000e0 a7 34 53 3f 95 72 56 3f 1b 5c 60 3f 76 ae 27 3f
       0.82502216 0.8376859 0.8764054 0.6550058
0000f0 41 ae 88 3f ba 54 17 3f 32 6c 93 3f ca e0 4a 3f
       1.0678178 0.5911366 1.1517394 0.7924925

position_embedding.4.bias f4 [64]
000000 be e8 22 be ef 01 95 bd f6 b8 58 bc 54 05 f8 3d
       -0.15909097 -0.072757594 -0.013227692 0.12110391
000010 de 3f 83 bc dc 3a 59 bb 22 3f 8a 3d b4 8a 91 3e
       -0.016021665 -0.0033146655 0.06750323 0.28426135
000020 17 5b e4 3b cb 57 aa be 24 ad e3 bc 47 b2 af be
       0.0069688666 -0.33270106 -0.02779252 -0.34315702
000030 d6 33 8e be 26 00 90 bd b7 26 db bd 42 f7 25 3d
       -0.27773923 -0.07031278 -0.10700744 0.040519007
000040 62 f9 0a 3f 51 9c d8 be d3 f0 1a be ff 30 2a bc
       0.5428678 -0.4230676 -0.1513093 -0.010387658
000050 97 a5 de be 70 b6 90 bd 9a 92 04 bf 95 55 91 be
       -0.4348571 -0.07066047 -0.51786196 -0.28385606
000060 82 2e 12 bd 47 dc a5 bd 30 8a 8a 3c 40 c4 9b be
       -0.035688885 -0.08098655 0.016911596 -0.30423164
000070 88 cf 4d be 49 e4 66 3d 12 6a d3 be d9 eb ab bd
       -0.20098698 0.056370053 -0.41291863 -0.08394594
000080 a4 27 ea bd 74 37 35 be ff e3 c9 3e f9 21 48 be
       -0.11433342 -0.17696935 0.3943176 -0.1954421
000090 f7 c5 ba bd cb 0f 55 be bf f2 16 3e 25 2c a6 3c
       -0.0911979 -0.20806806 0.14741038 0.020284722
0000a0 d4 2e da be 5e 3d 6a be 8e 71 f6 be bc 40 9f bf
       -0.42613852 -0.22874972 -0.4813351 -1.244163
0000b0 43 7b 08 be 6a 6a 96 be a8 d2 1b bf bc 2b 66 be
       -0.1332827 -0.29378062 -0.6086831 -0.22477621
0000c0 01 8f 02 3e d1 56 d3 bc 3b f0 0f be cb 6b fd 3d
       0.12749864 -0.025798233 -0.14056484 0.123740755
0000d0 6f 39 1e bf 4d 25 e9 be 1e 77 24 3d e9 60 8a bd
       -0.61806387 -0.4553627 0.04015266 -0.067567654
0000e0 c4 27 97 3d 2e 69 9b bd c9 b9 44 be 05 75 e4 3c
       0.073806316 -0.07588421 -0.19211496 0.02788783
0000f0 a5 9a f4 3d 3f bf 85 3d 06 76 36 bd d6 ce b5 bd
       0.119435586 0.06530618 -0.04454615 -0.088773414

position_embedding.4.running_mean f4 [64]
000000 2d 3b 7f bd 5b 58 ff bd 76 3f 1e 3e ca b0 19 be
       -0.062312294 -0.12468024 0.15453896 -0.15008846
000010 76 f7 13 3e b6 ad ab bd dd d1 b4 bd d5 06 24 be
       0.14449868 -0.08382742 -0.08829091 -0.16018231
000020 74 a2 0f be 8f 8b 86 bd 69 15 cc be 10 5b 8f bd
       -0.14026815 -0.065695874 -0.39860085 -0.06999791
000030 57 e9 35 bd af 85 90 3e 46 a6 4d bd 82 9c 07 3e
       -0.044411983 0.28226992 -0.0502074 0.13243297
000040 0a 20 9e bd 33 6d 18 be 08 46 5d bd 97 ea 95 bd
       -0.07720955 -0.14885406 -0.054021865 -0.07320135
000050 83 bb 41 3e 9e ad 55 bc 39 ea 35 be f0 5f 80 3d
       0.18919186 -0.013041882 -0.1776513 0.062682986
000060 3f 8c f0 bd 8d 0b 00 3e ac 09 40 be 42 f2 88 be
       -0.117455 0.12504406 -0.1875369 -0.26747328
000070 a3 9c 22 3b 58 0f 17 3e 4f 10 e4 bb 04 b7 32 3c
       0.00248126 0.14751947 -0.006959952 0.010907892
000080 49 16 44 3e 33 77 45 3c ca d3 8a be 32 8f 01 be
       0.19149126 0.012052345 -0.27114707 -0.12652281
000090 66 32 04 be c7 6f 58 bc 11 9b 34 3e aa 30 2e be
       -0.1290985 -0.013210244 0.17637278 -0.17010751
0000a0 e8 4e 73 3d 13 d1 42 3d f9 75 8c be 33 34 8f 3e
       0.059401423 0.04756267 -0.27433756 0.27969512
0000b0 43 f0 8e 3c 6d ae be bc c7 11 2f be 6d f0 7a be
       0.01744855 -0.023276532 -0.17096625 -0.24505778
0000c0 ff 9c 0a bd 42 40 54 be f1 94 83 be 59 b3 c8 3d
       -0.03384113 -0.20727637 -0.2569957 0.09799833
0000d0 d3 f2 f5 bd 00 ad f8 bd d1 57 3a be 4c 4d 61 be
       -0.12009206 -0.12142372 -0.18197562 -0.22002143
0000e0 34 22 2e be ea ce ad 3d 45 52 f2 bd 99 57 08 3e
       -0.17005235 0.08486731 -0.11832098 0.13314666
0000f0 ae 57 88 be 36 a5 f0 3d 6f 54 0f 3e 38 03 4f 3b
       -0.26629394 0.117502615 0.13997053 0.0031587612

position_embedding.4.running_var f4 [64]
000000 29 ba f0 3c b6 c1 aa 3d 7e ab 23 3d ff b9 47 3c
       0.029385643 0.08337729 0.03995847 0.012190341
000010 07 bc 5d 3d 30 c0 67 3c 61 38 f1 3c 09 5a 30 3c
       0.054134395 0.014144942 0.029445829 0.010763654
000020 cb f7 91 3c 28 97 04 3d 4a 30 2c 3d 14 67 62 3d
       0.017818352 0.032370716 0.04203824 0.055274084
000030 58 01 17 3c 28 78 6c 3d 02 dc 28 3c 49 0c 6b 3c
       0.009216629 0.057731777 0.01030636 0.014346191
000040 24 8d cc 3c 47 ac fb 3c 9e 35 9b 3c 6d 25 9e 3c
       0.024969645 0.030721797 0.018946465 0.019304955
000050 4f 2c e3 3c 36 6e 12 3c 1f 9e b3 3c d7 93 8c 3c
       0.027731089 0.008937409 0.021925984 0.01716034
000060 75 5c 62 3c f6 8e 08 3d 2a 6d 46 3d 4d 13 47 3d
       0.013815989 0.033339463 0.04844395 0.04860239
000070 61 22 32 3c 8b aa c1 3c 16 3e c7 3c f7 78 e2 3c
       0.010872454 0.023640892 0.024321597 0.027645571
000080 e9 87 99 3d 01 ee a6 3c a6 7c 35 3d 6b 6d 72 3d
       0.07496626 0.020377161 0.044308327 0.05918638
000090 75 25 7a 3d f1 6b 62 3d e4 53 11 3d b7 08 e2 3c
       0.061070878 0.055278722 0.035480395 0.027592046
0000a0 36 18 1e 3d 59 80 22 3d 5f 2d b9 3c f6 e7 80 3d
       0.038597308 0.039673183 0.022604642 0.06294243
0000b0 4b ff c4 3c 20 da 44 3d 22 78 a4 3c 85 58 21 3d
       0.024047514 0.048059583 0.020076815 0.03939106
0000c0 d7 c4 4e 3d 5f 28 d6 3c 3d a8 d6 3c a9 42 dc 3c
       0.05048069 0.026142297 0.02620327 0.026887255
0000d0 52 19 56 3c 1c 4b 27 3d 81 98 07 3d 79 e8 0a 3d
       0.01306756 0.040843114 0.033104423 0.03391311
0000e0 f4 39 fc 3c d6 ca cb 3c c5 45 07 3d 98 de d8 3c
       0.030789353 0.024876993 0.03302552 0.026473328
0000f0 19 7d d0 3d 4c d9 06 3c 9a 6f b4 3d 73 ae 54 3c
       0.101801105 0.008230519 0.08810349 0.012981045
